src/lightning_logs/version_2/checkpoints/epoch=0-step=3166.ckpt (torch, 290659 bytes, 12 tensors)

neural_predicates.digit.net.0.weight f4 [30, 784]
0	0xbc93010a	-0.017944831
1	0xbc280434	-0.010254908
2	0xbc9989dd	-0.018742496
3	0xbbcb1832	-0.0061979527
4	0x3c552731	0.013009832
5	0xbbf55718	-0.007487189
6	0x3d0a67a5	0.03379025
7	0xbcb7d983	-0.022442585
8	0xbaa0374d	-0.0012223512
9	0x3c176916	0.009241363
10	0x3b2a67c2	0.0026001786
11	0x3c2a98ca	0.010412404
12	0xbc44bd4c	-0.0120080225
13	0x3c7b6975	0.015344967
14	0x3ccec176	0.025238734
15	0xbc468da0	-0.012118727
16	0xbc4d3b1a	-0.012526298
17	0x3b2c0c8d	0.0026252598
18	0x3d222802	0.039588936
19	0xbb945487	-0.004526678
20	0x3ca43e09	0.020049112
21	0xbb5dfaac	-0.0033871336
22	0x388b363d	6.638139e-05
23	0x3c832827	0.016010357
24	0x3c197d3e	0.009368239
25	0x3b83f9f8	0.0040276013
26	0x3d16f393	0.036853384
27	0xbcbefe57	-0.023314638
28	0x3c610444	0.013733927
29	0x3cad8290	0.021180421
30	0x3d2dbb6b	0.042415064
31	0x3be7b33d	0.0070709274
32	0x3cbede72	0.02329943
33	0x3bb81556	0.005617778
34	0x3be532a5	0.0069945627
35	0x3b689c76	0.0035493649
36	0xbc202a9e	-0.009775786
37	0xbca33918	-0.019924685
38	0xbc3f6e00	-0.011683941
39	0x3d1dc870	0.03852123
40	0x3b0e8619	0.002174741
41	0xbae63745	-0.0017564079
42	0x3cf19dd7	0.02949421
43	0xbcce57f0	-0.025188416
44	0x3d113a45	0.03545596
45	0xbad4044f	-0.00161756
46	0xbcb45669	-0.02201386
47	0xbb9579a2	-0.004561619
48	0x3bd45119	0.006479394
49	0xbc1f1aa2	-0.00971094
50	0xbb4fd899	-0.0031714796
51	0x3c3cbc71	0.011519537
52	0x3cfe654c	0.031054161
53	0x3c4efec7	0.012633986
54	0x3cb9f241	0.022698523
55	0x3cc18e2f	0.023627369
56	0xbbe139d7	-0.00687335
57	0xbc95e94b	-0.01829972
58	0x3d068923	0.032845628
59	0xbcd57845	-0.026058326
60	0x3c4adbb3	0.012381482
61	0xbca0f3d8	-0.019647524
62	0x3c9e19c6	0.0192994
63	0x3d2058cf	0.039147194
64	0x3bcb4ac1	0.0062039797
65	0x3d18964e	0.037252717
66	0xbc46abaa	-0.012125889
67	0xbc903b0f	-0.017606286
68	0x3bc8c1a4	0.0061265994
69	0x3cad913f	0.021187423
70	0xbc495383	-0.012287977
71	0x3cf79578	0.03022264
72	0x3c9b98d2	0.018993769
73	0x3c8b573b	0.017009368
74	0xbccc731d	-0.024957234
75	0x3d13c279	0.036074135
76	0x3d15144d	0.036396313
77	0xbcbc9bca	-0.023023505
78	0xbbccf3c6	-0.006254646
79	0xbc46e988	-0.012140639
80	0x3bdc8ddb	0.0067307777
81	0x3c11a29d	0.008888868
82	0xbca73e82	-0.020415548
83	0xbc789256	-0.015171608
84	0x3cb17616	0.021662753
85	0x3cbba959	0.0229079
86	0xbcb4edb5	-0.022086004
87	0x3ceb2df1	0.02870843
88	0x3c03f570	0.008054122
89	0x3c6d6f0f	0.01449181
90	0x3c9370d0	0.01799813
91	0x3c924597	0.017855449
92	0x3cfaab76	0.030599337
93	0x3d0dc9a4	0.034616128
94	0x3cbcf7b8	0.02306734
95	0xbcc1038b	-0.02356126
96	0x3d1853b1	0.03718919
97	0xbc98f8b6	-0.018673282
98	0xbc8419bf	-0.016125558
99	0x3b510239	0.0031892194
100	0x38d93e1a	0.00010358934
101	0x3d13aac6	0.036051534
102	0xbb45d838	-0.003018869
103	0x3d27a50e	0.040928893
104	0xbc2a7f9b	-0.0104064
105	0xbbc71af6	-0.006076212
106	0xbb49b33e	-0.0030777003
107	0x3c920462	0.017824356
108	0xbc95fea5	-0.0183099
109	0x3cae3655	0.021266142
110	0x3d18577b	0.037192803
111	0x3c8dfde8	0.017332986
112	0xbc99d124	-0.018776484
113	0xbc4f0fd8	-0.012638055
114	0xbbc84389	-0.0061115664
115	0xbc796168	-0.015220977
116	0xbc7da772	-0.015481817
117	0xbcb43731	-0.021998974
118	0x3c3938b4	0.011305023
119	0xbc902682	-0.017596487
120	0x3d2dbf26	0.04241862
121	0xbca97334	-0.020684816
122	0x3c8dab4f	0.0172936
123	0xbc3b1cf8	-0.011420481
124	0x3d2d504b	0.0423129
125	0x3ba72341	0.005100638
126	0xbcc76abf	-0.024342893
127	0xbb467ce9	-0.0030286855
128	0x3ba80d06	0.0051285056
129	0xbc284241	-0.010269702
130	0xbad7aa40	-0.0016453937
131	0xbc52d946	-0.012869185
132	0x3ca0f756	0.019649189
133	0x3ca593ce	0.02021208
134	0xbc8ce1a3	-0.017197436
135	0x3cca88ee	0.024723496
136	0x3cd3c161	0.025849046
137	0xbbd8a1b5	-0.006611074
138	0x3cdca69e	0.026934918
139	0x3cd3cdab	0.025854906
140	0xbca231b7	-0.019799097
141	0x3d1c19b6	0.038110457
142	0x3c6dc985	0.014513378
143	0xbc7e61cb	-0.015526245
144	0xbbf52e4b	-0.007482325
145	0xbc3b674a	-0.0114382
146	0xbca9adab	-0.020712694
147	0x3caf2038	0.021377668
148	0x3c8a461c	0.016879134
149	0xbb341f12	-0.002748434
150	0x3d105126	0.03523364
151	0xbcceefb4	-0.025260784
152	0x3d05bd1c	0.032651052
153	0x3c553339	0.013012701
154	0x3d0e252a	0.03470341
155	0x3c5db082	0.013530852
156	0xbcb0c0cc	-0.021576308
157	0x3caffd35	0.021483043
158	0x3b20d710	0.002454225
159	0xbbd953c7	-0.0066323015
160	0x3ccedce6	0.025251817
161	0x3aaf0b8f	0.0013354885
162	0x3c4c06db	0.012452806
163	0x3bb00cdc	0.0053726267
164	0xbc94ee91	-0.018180164
165	0x3d09515a	0.03352485
166	0xbb954186	-0.00455493
167	0x3bde91fe	0.006792306
168	0xbc3c03f1	-0.011475549
169	0x3cc424f1	0.023943396
170	0x3bd2b0a2	0.0064297477
171	0xbc4e8272	-0.012604343
172	0xbbe922b3	-0.007114732
173	0xbcd99ada	-0.026563097
174	0xbc9d31ba	-0.01918875
175	0xbc395de2	-0.011313887
176	0xbb674000	-0.003528595
177	0xbcb5c50a	-0.022188682
178	0xbbcad893	-0.0061903684
179	0xbc3916d9	-0.011296951
180	0x3ccc784a	0.024959702
181	0x3b489d9b	0.0030611518
182	0xbc8738fe	-0.016506668
183	0xbce92584	-0.028460272
184	0x3cc7dd24	0.02439744
185	0x3c2b33b7	0.0104493415
186	0xbc2a0b6d	-0.010378701
187	0xbc5e9972	-0.013586389
188	0x3d0a669c	0.033789262
189	0xbc71404f	-0.014724805
190	0xbb1f1198	-0.0024271961
191	0x3c8c1ff3	0.017105078
192	0xbc2b7a3b	-0.010466154
193	0x3d080b7e	0.033214085
194	0x3cf76141	0.030197741
195	0x3caf830e	0.021424796
196	0x3b181bb6	0.0023209876
197	0xbbc1563e	-0.0059001734
198	0x3d188b82	0.03724242
199	0xbc8a35b5	-0.016871313
200	0x3cec58b3	0.028850889
201	0xbca613a7	-0.020273043
202	0xbbf0221b	-0.0073282844
203	0xbab8b721	-0.0014092663
204	0x3c534231	0.012894199
205	0x3d20f079	0.039291833
206	0xbb0fcd51	-0.0021942446
207	0x3cc213f0	0.023691148
208	0x3caa78c2	0.020809535
209	0xbc39dc49	-0.011344024
210	0x3cde6f20	0.027152598
211	0xbcb2439e	-0.021760758
212	0xbcb7a197	-0.02241592
213	0x3a2cafe3	0.00065874885
214	0xbbd56299	-0.006511998
215	0x3cb53bea	0.022123296
216	0xbbc70a9e	-0.0060742637
217	0x3bb0684c	0.005383527
218	0xba0d204f	-0.00053835375
219	0x3d158074	0.036499456
220	0xbca85199	-0.020546721
221	0x3c00e8cb	0.007868002
222	0xbcaec7d1	-0.021335514
223	0xbcc70b9b	-0.024297526
224	0xbc759154	-0.014988262
225	0x3d2677c4	0.04064156
226	0xbc76a30e	-0.015053524
227	0xbcb6a3b7	-0.022294862
228	0x3d05125c	0.032488212
229	0x3a913ca3	0.0011080693
230	0x3c39e763	0.011346671
231	0x3c00a965	0.007852887
232	0x3ce360cd	0.02775612
233	0x3a843efd	0.0010089573
234	0x3cba3008	0.022727981
235	0x3d04b53e	0.03239941
236	0x3d0558e5	0.03255548
237	0x3ca002c7	0.019532574
238	0xbce4470d	-0.02786591
239	0xbb480d00	-0.0030525327
240	0xbc3baf23	-0.01145533
241	0xbc6f6509	-0.014611491
242	0x3bed1bb0	0.0072359666
243	0xbc403715	-0.011731883
244	0x3cbb0191	0.022827895
245	0x3ccd9e03	0.02509976
246	0xbb43f7c0	-0.002990231
247	0xbcc8692b	-0.02446421
248	0xb8e3eaa6	-0.0001086791
249	0xbbcccb4e	-0.0062498217
250	0x3d1de215	0.038545687
251	0xbbf2e193	-0.0074121444
252	0x3cff8cec	0.031195126
253	0x3c77c127	0.015121735
254	0x3cabb1c2	0.020958785
255	0x3ccd42a9	0.0250562

neural_predicates.digit.net.0.bias f4 [30]
0	0x3c3e109a	0.011600638
1	0x3bca5b53	0.0061754375
2	0xbcb586c9	-0.022158997
3	0xbd06109e	-0.03273069
4	0x3cd3693b	0.025807014
5	0xbc993bf0	-0.018705338
6	0x3d65f8a3	0.05614532
7	0x3d39871d	0.04529487
8	0xbca0f158	-0.019646332
9	0x3c539910	0.012914911
10	0xbd1c3427	-0.038135674
11	0xbc79e919	-0.015253329
12	0x3d0cef4d	0.034407903
13	0xbc0244df	-0.00795099
14	0x3ca8ccab	0.020605406
15	0x3c2068f7	0.009790651
16	0xbc9c4bbc	-0.019079082
17	0xbcea7a13	-0.028622663
18	0xbbe2479f	-0.0069055106
19	0xbc97eae7	-0.018544627
20	0xbcb51d04	-0.022108562
21	0x3cbfdd7c	0.023421042
22	0xbbd305a6	-0.0064398823
23	0x3d3732fa	0.04472635
24	0xbcac8e2c	-0.021063887
25	0xbc4e008b	-0.012573372
26	0xbbd59374	-0.006517822
27	0xbc2aa043	-0.010414186
28	0x3d0814d3	0.033222985
29	0xbd156c06	-0.036479972

neural_predicates.digit.net.2.weight f4 [2, 30]
0	0x3d2d2534	0.042271808
1	0x3d9c469c	0.07630655
2	0xbd12089f	-0.035652753
3	0xbdbed7e1	-0.093185194
4	0xbe17303f	-0.14764498
5	0x3d872a61	0.0659988
6	0x3d9f6593	0.077830456
7	0xbe07f6c1	-0.13277723
8	0xbe14e382	-0.14539912
9	0xbdd3f995	-0.10350338
10	0xbdd97bc3	-0.10619309
11	0x3dc3a78b	0.09553441
12	0x3db943d5	0.09046141
13	0x3e415468	0.18879855
14	0x3e3e7099	0.1859764
15	0x3dafa1e2	0.085757986
16	0x3de9d34e	0.11417256
17	0xbdf34e58	-0.11880177
18	0x3df1782d	0.117905
19	0xbe014d81	-0.12627222
20	0x3cb792d0	0.022408873
21	0x3e44f69c	0.19234699
22	0xbe04027b	-0.12891571
23	0x3d86f520	0.06589723
24	0xbd0a7c04	-0.033809677
25	0xbe16bf19	-0.14721335
26	0x3e22e7a1	0.15908672
27	0xbdb9218f	-0.09039604
28	0xbd3b3466	-0.045704268
29	0xbe0f9425	-0.14021356
30	0x3df393b2	0.11893405
31	0xbd6f0505	-0.058354396
32	0x3e0fc621	0.14040424
33	0xbd87ea06	-0.06636433
34	0xbe1f5bf9	-0.15562429
35	0x3dbd372d	0.092390396
36	0xbe224271	-0.15845658
37	0xbe42daa7	-0.19028722
38	0x3ced5c66	0.028974723
39	0xbdc7c0bd	-0.09753559
40	0x3d854524	0.06507328
41	0x3e221876	0.15829644
42	0xbda13f29	-0.07873375
43	0xbd8887f9	-0.0666656
44	0x3e1c331d	0.15253873
45	0x3da1b380	0.07895565
46	0xbd31d5e0	-0.043416858
47	0xbd12147e	-0.035664074
48	0xbd0fd41d	-0.035114396
49	0xbd899c44	-0.067192584
50	0xbe3c9edf	-0.1841998
51	0xbe2f8aa0	-0.17142725
52	0xbcf91cea	-0.030409295
53	0xbdb49f03	-0.088193916
54	0x3d4bb294	0.049730852
55	0xbcd03b9f	-0.025419055
56	0xbd7378f3	-0.059441518
57	0xbcf79f9f	-0.03022748
58	0xbe0f8ffc	-0.1401977
59	0xbd810af3	-0.063009165

neural_predicates.digit.net.2.bias f4 [2]
0	0x3e14c752	0.1452916
1	0x3d3fba6f	0.046808656

exp_avg f4 [30, 784]
0	0x80000004	-6e-45
1	0x80000004	-6e-45
2	0x80000004	-6e-45
3	0x80000004	-6e-45
4	0x80000004	-6e-45
5	0x80000004	-6e-45
6	0x80000004	-6e-45
7	0x80000004	-6e-45
8	0x80000004	-6e-45
9	0x80000004	-6e-45
10	0x80000004	-6e-45
11	0x80000004	-6e-45
12	0x80000004	-6e-45
13	0x80000004	-6e-45
14	0x80000004	-6e-45
15	0x80000004	-6e-45
16	0x80000004	-6e-45
17	0x80000004	-6e-45
18	0x80000004	-6e-45
19	0x80000004	-6e-45
20	0x80000004	-6e-45
21	0x80000004	-6e-45
22	0x80000004	-6e-45
23	0x80000004	-6e-45
24	0x80000004	-6e-45
25	0x80000004	-6e-45
26	0x80000004	-6e-45
27	0x80000004	-6e-45
28	0x80000004	-6e-45
29	0x80000004	-6e-45
30	0x80000004	-6e-45
31	0x80000004	-6e-45
32	0x80000004	-6e-45
33	0x80000004	-6e-45
34	0x80000004	-6e-45
35	0x80000004	-6e-45
36	0x80000004	-6e-45
37	0x80000004	-6e-45
38	0x80000004	-6e-45
39	0x80000004	-6e-45
40	0x80000004	-6e-45
41	0x80000004	-6e-45
42	0x80000004	-6e-45
43	0x80000004	-6e-45
44	0x80000004	-6e-45
45	0x80000004	-6e-45
46	0x80000004	-6e-45
47	0x80000004	-6e-45
48	0x80000004	-6e-45
49	0x80000004	-6e-45
50	0x80000004	-6e-45
51	0x80000004	-6e-45
52	0x80000004	-6e-45
53	0x80000004	-6e-45
54	0x80000004	-6e-45
55	0x80000004	-6e-45
56	0x80000004	-6e-45
57	0x80000004	-6e-45
58	0x80000004	-6e-45
59	0x80000004	-6e-45
60	0x80000004	-6e-45
61	0x80000004	-6e-45
62	0x80000004	-6e-45
63	0x80000004	-6e-45
64	0x80000004	-6e-45
65	0x80000004	-6e-45
66	0x80000004	-6e-45
67	0x80000004	-6e-45
68	0x80000004	-6e-45
69	0x80000004	-6e-45
70	0x80000004	-6e-45
71	0x80000004	-6e-45
72	0x80000004	-6e-45
73	0x80000004	-6e-45
74	0x80000004	-6e-45
75	0x80000004	-6e-45
76	0x80000004	-6e-45
77	0x80000004	-6e-45
78	0x80000004	-6e-45
79	0x80000004	-6e-45
80	0x80000004	-6e-45
81	0x80000004	-6e-45
82	0x80000004	-6e-45
83	0x80000004	-6e-45
84	0x80000004	-6e-45
85	0x80000004	-6e-45
86	0x80000004	-6e-45
87	0x80000004	-6e-45
88	0x80000004	-6e-45
89	0x80000004	-6e-45
90	0x80000004	-6e-45
91	0x80000004	-6e-45
92	0x80000004	-6e-45
93	0x80000004	-6e-45
94	0x80000004	-6e-45
95	0x80000004	-6e-45
96	0x80000004	-6e-45
97	0x80000004	-6e-45
98	0x80000004	-6e-45
99	0x80000004	-6e-45
100	0x80000004	-6e-45
101	0x80000004	-6e-45
102	0x80000004	-6e-45
103	0x80000004	-6e-45
104	0x80000004	-6e-45
105	0x80000004	-6e-45
106	0x80000004	-6e-45
107	0x80000004	-6e-45
108	0x80000004	-6e-45
109	0x80000004	-6e-45
110	0x80000004	-6e-45
111	0x80000004	-6e-45
112	0x80000004	-6e-45
113	0x80000004	-6e-45
114	0x80000004	-6e-45
115	0x80000004	-6e-45
116	0x80000004	-6e-45
117	0x80000004	-6e-45
118	0x80000004	-6e-45
119	0x80000004	-6e-45
120	0x80000004	-6e-45
121	0x80000004	-6e-45
122	0x80000004	-6e-45
123	0x80000004	-6e-45
124	0x80000004	-6e-45
125	0x80000004	-6e-45
126	0x80000004	-6e-45
127	0x80000004	-6e-45
128	0x80000004	-6e-45
129	0x80000004	-6e-45
130	0x80000004	-6e-45
131	0x80000004	-6e-45
132	0x80000004	-6e-45
133	0x80000004	-6e-45
134	0x80000004	-6e-45
135	0x80000004	-6e-45
136	0x80000004	-6e-45
137	0x80000004	-6e-45
138	0x80000004	-6e-45
139	0x80000004	-6e-45
140	0x80000004	-6e-45
141	0x80000004	-6e-45
142	0x80000004	-6e-45
143	0x80000004	-6e-45
144	0x80000004	-6e-45
145	0x80000004	-6e-45
146	0x80000004	-6e-45
147	0x80000004	-6e-45
148	0x80000004	-6e-45
149	0x80000004	-6e-45
150	0x80000004	-6e-45
151	0x80000004	-6e-45
152	0x80000004	-6e-45
153	0x80000004	-6e-45
154	0x80000004	-6e-45
155	0x80000004	-6e-45
156	0x80000004	-6e-45
157	0x80000004	-6e-45
158	0x00000004	6e-45
159	0x00000004	6e-45
160	0x80000004	-6e-45
161	0x80000004	-6e-45
162	0x80000004	-6e-45
163	0x80000004	-6e-45
164	0x80000004	-6e-45
165	0x80000004	-6e-45
166	0x80000004	-6e-45
167	0x80000004	-6e-45
168	0x80000004	-6e-45
169	0x80000004	-6e-45
170	0x80000004	-6e-45
171	0x80000004	-6e-45
172	0x80000004	-6e-45
173	0x80000004	-6e-45
174	0x80000004	-6e-45
175	0x80000004	-6e-45
176	0x80000004	-6e-45
177	0x80000004	-6e-45
178	0x80000004	-6e-45
179	0x80000004	-6e-45
180	0x80000004	-6e-45
181	0x80000004	-6e-45
182	0x80000004	-6e-45
183	0x80000004	-6e-45
184	0x00000004	6e-45
185	0x00000004	6e-45
186	0x00000004	6e-45
187	0x00000004	6e-45
188	0x80000004	-6e-45
189	0x80000004	-6e-45
190	0x80000004	-6e-45
191	0x80000004	-6e-45
192	0x80000004	-6e-45
193	0x80000004	-6e-45
194	0x80000004	-6e-45
195	0x80000004	-6e-45
196	0x80000004	-6e-45
197	0x80000004	-6e-45
198	0x80000004	-6e-45
199	0x80000004	-6e-45
200	0x80000004	-6e-45
201	0x80000004	-6e-45
202	0x80000004	-6e-45
203	0x80000004	-6e-45
204	0x80000004	-6e-45
205	0x80000004	-6e-45
206	0x80000004	-6e-45
207	0x80000004	-6e-45
208	0x80000004	-6e-45
209	0x80000004	-6e-45
210	0x00000004	6e-45
211	0x00000004	6e-45
212	0x00000004	6e-45
213	0x00000004	6e-45
214	0x00000004	6e-45
215	0x80000004	-6e-45
216	0x80000004	-6e-45
217	0x80000004	-6e-45
218	0x80000004	-6e-45
219	0x80000004	-6e-45
220	0x80000004	-6e-45
221	0x80000004	-6e-45
222	0x80000004	-6e-45
223	0x80000004	-6e-45
224	0x80000004	-6e-45
225	0x80000004	-6e-45
226	0x80000004	-6e-45
227	0x80000004	-6e-45
228	0x80000004	-6e-45
229	0x80000004	-6e-45
230	0x80000004	-6e-45
231	0x80000004	-6e-45
232	0x80000004	-6e-45
233	0x80000004	-6e-45
234	0x80000004	-6e-45
235	0x80000004	-6e-45
236	0x80000004	-6e-45
237	0x00000004	6e-45
238	0x00000004	6e-45
239	0x00000004	6e-45
240	0x00000004	6e-45
241	0x00000004	6e-45
242	0x00000004	6e-45
243	0x80000004	-6e-45
244	0x80000004	-6e-45
245	0x80000004	-6e-45
246	0x80000004	-6e-45
247	0x80000004	-6e-45
248	0x80000004	-6e-45
249	0x80000004	-6e-45
250	0x80000004	-6e-45
251	0x80000004	-6e-45
252	0x80000004	-6e-45
253	0x80000004	-6e-45
254	0x80000004	-6e-45
255	0x80000004	-6e-45

exp_avg_sq f4 [30, 784]
0	0x34f8dfbd	4.635639e-07
1	0x34f8dfbd	4.635639e-07
2	0x34f8dfbd	4.635639e-07
3	0x34f8dfbd	4.635639e-07
4	0x34f8dfbd	4.635639e-07
5	0x34f8dfbd	4.635639e-07
6	0x34f8dfbd	4.635639e-07
7	0x34f8dfbd	4.635639e-07
8	0x34f8dfbd	4.635639e-07
9	0x34f8dfbd	4.635639e-07
10	0x34f8dfbd	4.635639e-07
11	0x34f8dfbd	4.635639e-07
12	0x34f8dfbd	4.635639e-07
13	0x34f8dfbd	4.635639e-07
14	0x34f8dfbd	4.635639e-07
15	0x34f8dfbd	4.635639e-07
16	0x34f8dfbd	4.635639e-07
17	0x34f8dfbd	4.635639e-07
18	0x34f8dfbd	4.635639e-07
19	0x34f8dfbd	4.635639e-07
20	0x34f8dfbd	4.635639e-07
21	0x34f8dfbd	4.635639e-07
22	0x34f8dfbd	4.635639e-07
23	0x34f8dfbd	4.635639e-07
24	0x34f8dfbd	4.635639e-07
25	0x34f8dfbd	4.635639e-07
26	0x34f8dfbd	4.635639e-07
27	0x34f8dfbd	4.635639e-07
28	0x34f8dfbd	4.635639e-07
29	0x34f8dfbd	4.635639e-07
30	0x34f8dfbd	4.635639e-07
31	0x34f8dfbd	4.635639e-07
32	0x34f8dfbd	4.635639e-07
33	0x34f8dfbd	4.635639e-07
34	0x34f8dfbd	4.635639e-07
35	0x34f8dfbd	4.635639e-07
36	0x34f8dfbd	4.635639e-07
37	0x34f8dfbd	4.635639e-07
38	0x34f8dfbd	4.635639e-07
39	0x34f8dfbd	4.635639e-07
40	0x34f8dfbd	4.635639e-07
41	0x34f8dfbd	4.635639e-07
42	0x34f8dfbd	4.635639e-07
43	0x34f8dfbd	4.635639e-07
44	0x34f8dfbd	4.635639e-07
45	0x34f8dfbd	4.635639e-07
46	0x34f8dfbd	4.635639e-07
47	0x34f8dfbd	4.635639e-07
48	0x34f8dfbd	4.635639e-07
49	0x34f8dfbd	4.635639e-07
50	0x34f8dfbd	4.635639e-07
51	0x34f8dfbd	4.635639e-07
52	0x34f8dfbd	4.635639e-07
53	0x34f8dfbd	4.635639e-07
54	0x34f8dfbd	4.635639e-07
55	0x34f8dfbd	4.635639e-07
56	0x34f8dfbd	4.635639e-07
57	0x34f8dfbd	4.635639e-07
58	0x34f8dfbd	4.635639e-07
59	0x34f8dfbd	4.635639e-07
60	0x34f8dfbd	4.635639e-07
61	0x34f8dfbd	4.635639e-07
62	0x34f8dfbd	4.635639e-07
63	0x34f8dfbd	4.635639e-07
64	0x34f8dfbd	4.635639e-07
65	0x34f8dfbd	4.635639e-07
66	0x34f8dfbd	4.635639e-07
67	0x34f8dfbd	4.635639e-07
68	0x34f8dfbd	4.635639e-07
69	0x34f8dfbd	4.635639e-07
70	0x34f8dfbd	4.635639e-07
71	0x34f8dfbd	4.635639e-07
72	0x34f8dfbd	4.635639e-07
73	0x34f8dfbd	4.635639e-07
74	0x34f8dfbd	4.635639e-07
75	0x34f8dfbd	4.635639e-07
76	0x34f8dfbd	4.635639e-07
77	0x34f8dfbd	4.635639e-07
78	0x34f8dfbd	4.635639e-07
79	0x34f8dfbd	4.635639e-07
80	0x34f8dfbd	4.635639e-07
81	0x34f8dfbd	4.635639e-07
82	0x34f8dfbd	4.635639e-07
83	0x34f8dfbd	4.635639e-07
84	0x34f8dfbd	4.635639e-07
85	0x34f8dfbd	4.635639e-07
86	0x34f8dfbd	4.635639e-07
87	0x34f8dfbd	4.635639e-07
88	0x34f8dfbd	4.635639e-07
89	0x34f8dfbd	4.635639e-07
90	0x34f8dfbd	4.635639e-07
91	0x34f8dfbd	4.635639e-07
92	0x34f8dfbd	4.635639e-07
93	0x34f8dfbd	4.635639e-07
94	0x34f8dfbd	4.635639e-07
95	0x34f8dfbd	4.635639e-07
96	0x34f8dfbd	4.635639e-07
97	0x34f8dfbd	4.635639e-07
98	0x34f8dfbd	4.635639e-07
99	0x34f8dfbd	4.635639e-07
100	0x34f8dfbd	4.635639e-07
101	0x34f8dfbd	4.635639e-07
102	0x34f8dfbd	4.635639e-07
103	0x34f8dfbd	4.635639e-07
104	0x34f8dfbd	4.635639e-07
105	0x34f8dfbd	4.635639e-07
106	0x34f8dfbd	4.635639e-07
107	0x34f8dfbd	4.635639e-07
108	0x34f8dfbd	4.635639e-07
109	0x34f8dfbd	4.635639e-07
110	0x34f8dfbd	4.635639e-07
111	0x34f8dfbd	4.635639e-07
112	0x34f8dfbd	4.635639e-07
113	0x34f8dfbd	4.635639e-07
114	0x34f8dfbd	4.635639e-07
115	0x34f8dfbd	4.635639e-07
116	0x34f8dfbd	4.635639e-07
117	0x34f8dfbd	4.635639e-07
118	0x34f8dfbd	4.635639e-07
119	0x34f8dfbd	4.635639e-07
120	0x34f8dfbd	4.635639e-07
121	0x34f8dfbd	4.635639e-07
122	0x34f8dfbd	4.635639e-07
123	0x34f8dfbd	4.635639e-07
124	0x34f8dfbd	4.635639e-07
125	0x34b87ec9	3.436492e-07
126	0x34c7f79c	3.7246798e-07
127	0x34f8dfbd	4.635639e-07
128	0x34f8dfbd	4.635639e-07
129	0x3496f2e7	2.8116412e-07
130	0x341b6120	1.4470834e-07
131	0x340d3380	1.3150384e-07
132	0x342091f9	1.4954266e-07
133	0x3493120e	2.739402e-07
134	0x3498dd74	2.8473335e-07
135	0x349fdf85	2.977869e-07
136	0x34f8dfbd	4.635639e-07
137	0x34f8dfbd	4.635639e-07
138	0x34f8dfbd	4.635639e-07
139	0x34f8dfbd	4.635639e-07
140	0x34f8dfbd	4.635639e-07
141	0x34f8dfbd	4.635639e-07
142	0x34f8dfbd	4.635639e-07
143	0x34f8dfbd	4.635639e-07
144	0x34f8dfbd	4.635639e-07
145	0x34f8dfbd	4.635639e-07
146	0x34f8dfbd	4.635639e-07
147	0x34f8dfbd	4.635639e-07
148	0x34f8dfbd	4.635639e-07
149	0x34f8dfbd	4.635639e-07
150	0x34f8dfbd	4.635639e-07
151	0x34dc3d65	4.1022864e-07
152	0x34b87ec9	3.436492e-07
153	0x34b87ec9	3.436492e-07
154	0x34c7f79c	3.7246798e-07
155	0x34f8dfbd	4.635639e-07
156	0x34e111c2	4.1922436e-07
157	0x345852ed	2.0146736e-07
158	0x34f321a6	4.528676e-07
159	0x34f02eb6	4.473747e-07
160	0x341408c5	1.3786764e-07
161	0x3401111f	1.202029e-07
162	0x3401111f	1.202029e-07
163	0x3401bb8c	1.208229e-07
164	0x34f8dfbd	4.635639e-07
165	0x34f8dfbd	4.635639e-07
166	0x34f8dfbd	4.635639e-07
167	0x34f8dfbd	4.635639e-07
168	0x34f8dfbd	4.635639e-07
169	0x34f8dfbd	4.635639e-07
170	0x34f8dfbd	4.635639e-07
171	0x34f8dfbd	4.635639e-07
172	0x34f8dfbd	4.635639e-07
173	0x34f8dfbd	4.635639e-07
174	0x34f8dfbd	4.635639e-07
175	0x34f8dfbd	4.635639e-07
176	0x34f8dfbd	4.635639e-07
177	0x34f8dfbd	4.635639e-07
178	0x34f8dfbd	4.635639e-07
179	0x34c44f79	3.656567e-07
180	0x34d1fa46	3.9111382e-07
181	0x34e06c68	4.1802127e-07
182	0x34bd99b4	3.5315827e-07
183	0x348809cd	2.5339105e-07
184	0x32820f4a	1.5140944e-08
185	0x34b3e994	3.35113e-07
186	0x34dde063	4.132772e-07
187	0x34cd9b73	3.829733e-07
188	0x340a06d3	1.2854734e-07
189	0x3401982b	1.206942e-07
190	0x3401111f	1.202029e-07
191	0x3401111f	1.202029e-07
192	0x34f8dfbd	4.635639e-07
193	0x34f8dfbd	4.635639e-07
194	0x34f8dfbd	4.635639e-07
195	0x34f8dfbd	4.635639e-07
196	0x34f8dfbd	4.635639e-07
197	0x34f8dfbd	4.635639e-07
198	0x34f8dfbd	4.635639e-07
199	0x34f8dfbd	4.635639e-07
200	0x34f8dfbd	4.635639e-07
201	0x34f8dfbd	4.635639e-07
202	0x34f8dfbd	4.635639e-07
203	0x34f8dfbd	4.635639e-07
204	0x34f8dfbd	4.635639e-07
205	0x34f8dfbd	4.635639e-07
206	0x34f8dfbd	4.635639e-07
207	0x34d6e344	4.0025964e-07
208	0x34f7e225	4.6171877e-07
209	0x34ee16b6	4.434748e-07
210	0x3482ba67	2.4350012e-07
211	0x3403c470	1.2271789e-07
212	0x348a1b73	2.5724475e-07
213	0x34b6ff23	3.4085778e-07
214	0x342859da	1.5678907e-07
215	0x32224833	9.446057e-09
216	0x34bf19e5	3.5595363e-07
217	0x33b73de0	8.5328566e-08
218	0x3401111f	1.202029e-07
219	0x342853fb	1.5676771e-07
220	0x34f8dfbd	4.635639e-07
221	0x34f8dfbd	4.635639e-07
222	0x34f8dfbd	4.635639e-07
223	0x34f8dfbd	4.635639e-07
224	0x34f8dfbd	4.635639e-07
225	0x34f8dfbd	4.635639e-07
226	0x34f8dfbd	4.635639e-07
227	0x34f8dfbd	4.635639e-07
228	0x34f8dfbd	4.635639e-07
229	0x34f8dfbd	4.635639e-07
230	0x34f8dfbd	4.635639e-07
231	0x34f8dfbd	4.635639e-07
232	0x34f8dfbd	4.635639e-07
233	0x34f8dfbd	4.635639e-07
234	0x34b8990f	3.4384036e-07
235	0x34f384c7	4.5358885e-07
236	0x34c3849a	3.641806e-07
237	0x33d06c06	9.705404e-08
238	0x32f5add0	2.8600795e-08
239	0x31975ed4	4.405459e-09
240	0x349b9e43	2.898615e-07
241	0x32b3a9bd	2.091553e-08
242	0x32f46f14	2.8455851e-08
243	0x3481cf66	2.4179025e-07
244	0x349d3dd5	2.9288518e-07
245	0x31a4dcda	4.798136e-09
246	0x323f29e8	1.1127192e-08
247	0x3498b7f8	2.844606e-07
248	0x34f8dfbd	4.635639e-07
249	0x34f8dfbd	4.635639e-07
250	0x34f8dfbd	4.635639e-07
251	0x34f8dfbd	4.635639e-07
252	0x34f8dfbd	4.635639e-07
253	0x34f8dfbd	4.635639e-07
254	0x34f8dfbd	4.635639e-07
255	0x34f8dfbd	4.635639e-07

exp_avg f4 [30]
0	0x00000004	6e-45
1	0x00000000	0.0
2	0x00000004	6e-45
3	0x00000004	6e-45
4	0x00000004	6e-45
5	0x00000004	6e-45
6	0xb2f69a25	-2.8708266e-08
7	0xb1d38492	-6.1559797e-09
8	0x00000004	6e-45
9	0x00000004	6e-45
10	0x00000004	6e-45
11	0x00000004	6e-45
12	0xb2b2694c	-2.076981e-08
13	0xb307ed8b	-3.164818e-08
14	0xb1acf30d	-5.0334905e-09
15	0x00000004	6e-45
16	0xb2a79851	-1.9510624e-08
17	0x00000004	6e-45
18	0xb2a31221	-1.8983942e-08
19	0x00000004	6e-45
20	0xb2d5ad66	-2.4875316e-08
21	0xb33fbf8a	-4.4644857e-08
22	0x00000004	6e-45
23	0xb2a1b3f8	-1.8824707e-08
24	0x00000004	6e-45
25	0x00000004	6e-45
26	0xb2e87134	-2.7059833e-08
27	0x00000004	6e-45
28	0xb23e25b7	-1.1068031e-08
29	0x00000004	6e-45

exp_avg_sq f4 [30]
0	0x34f8dfbd	4.635639e-07
1	0x00000000	0.0
2	0x2ae74e69	4.108825e-13
3	0x31afe594	5.1192703e-09
4	0x306b779d	8.566248e-10
5	0x337ebdaf	5.93115e-08
6	0x2db8e585	2.1020305e-11
7	0x335dea29	5.166854e-08
8	0x35d87048	1.6125932e-06
9	0x2fd7fd7a	3.9288378e-10
10	0x34bf89b0	3.5676703e-07
11	0x32b2cf57	2.0816215e-08
12	0x34e3a4de	4.2402002e-07
13	0x348ea685	2.657072e-07
14	0x2fdfb357	4.0690892e-10
15	0x2f7d0e65	2.301533e-10
16	0x34b77e19	3.4178154e-07
17	0x33bdfb57	8.846717e-08
18	0x3584503f	9.858121e-07
19	0x34832fc3	2.4435403e-07
20	0x34218ade	1.5044813e-07
21	0x36eedc73	7.1186164e-06
22	0x271e12d2	2.1937107e-15
23	0x350617de	4.995362e-07
24	0x26b268e7	1.2379665e-15
25	0x3543ffaa	7.30152e-07
26	0x361c0176	2.3246662e-06
27	0x268681fc	9.33335e-16
28	0x3497cc4c	2.8274587e-07
29	0x33b4c26b	8.4172676e-08

exp_avg f4 [2, 30]
0	0x80000004	-6e-45
1	0x00000000	0.0
2	0x80000004	-6e-45
3	0x80000004	-6e-45
4	0x80000004	-6e-45
5	0x80000004	-6e-45
6	0xb638443f	-2.745786e-06
7	0xb5447974	-7.319243e-07
8	0x80000004	-6e-45
9	0x80000004	-6e-45
10	0x80000004	-6e-45
11	0x80000004	-6e-45
12	0xb52d3ba9	-6.453434e-07
13	0xb520b9b4	-5.987488e-07
14	0xb58b9f3b	-1.0402649e-06
15	0x80000004	-6e-45
16	0xb5371bff	-6.821355e-07
17	0x80000004	-6e-45
18	0xb537b3e0	-6.8434565e-07
19	0x80000004	-6e-45
20	0xb5260a77	-6.185505e-07
21	0xb530a60d	-6.5806745e-07
22	0x80000004	-6e-45
23	0xb5492e8b	-7.4946064e-07
24	0x80000004	-6e-45
25	0x80000004	-6e-45
26	0xb54b31fc	-7.569613e-07
27	0x80000004	-6e-45
28	0xb5464e25	-7.3874463e-07
29	0x80000004	-6e-45
30	0x00000004	6e-45
31	0x00000000	0.0
32	0x00000004	6e-45
33	0x00000004	6e-45
34	0x00000004	6e-45
35	0x00000004	6e-45
36	0x362fc51a	2.619176e-06
37	0x353fa2dd	7.139004e-07
38	0x00000004	6e-45
39	0x00000004	6e-45
40	0x00000004	6e-45
41	0x00000004	6e-45
42	0x3526ae60	6.209357e-07
43	0x351cbdba	5.8390617e-07
44	0x3587039a	1.0059332e-06
45	0x00000004	6e-45
46	0x35350e5b	6.7448644e-07
47	0x00000004	6e-45
48	0x3533dbcc	6.7002543e-07
49	0x00000004	6e-45
50	0x351f33aa	5.9307297e-07
51	0x352ca8aa	6.432043e-07
52	0x00000004	6e-45
53	0x35423fc9	7.236345e-07
54	0x00000004	6e-45
55	0x00000004	6e-45
56	0x3542b7f8	7.253834e-07
57	0x00000004	6e-45
58	0x354139f8	7.198246e-07
59	0x00000004	6e-45

exp_avg_sq f4 [2, 30]
0	0x37ca7bd2	2.4137935e-05
1	0x00000000	0.0
2	0x29049dcd	2.9446758e-14
3	0x33d97628	1.01263424e-07
4	0x33a33ed9	7.601711e-08
5	0x36585b0e	3.223951e-06
6	0x32f4c07a	2.8492867e-08
7	0x384bb743	4.8569647e-05
8	0x3757d912	1.2865539e-05
9	0x32a49eff	1.9164416e-08
10	0x34f3721e	4.5345308e-07
11	0x330f9e09	3.3438514e-08
12	0x368b9255	4.159558e-06
13	0x3578139a	9.2415723e-07
14	0x38085e44	3.251272e-05
15	0x343a75bb	1.736543e-07
16	0x37387448	1.09943285e-05
17	0x338c692a	6.538387e-08
18	0x384312c5	4.6509103e-05
19	0x38467b49	4.7321697e-05
20	0x354bf890	7.59851e-07
21	0x381795f5	3.6140864e-05
22	0x268f00f0	9.922872e-16
23	0x37483566	1.1933362e-05
24	0x27b5ac0b	5.042412e-15
25	0x37830cc9	1.562237e-05
26	0x38557ea4	5.09011e-05
27	0x2712f68a	2.039522e-15
28	0x3897ed4f	7.244443e-05
29	0x35178431	5.644425e-07
30	0x37ca7bc5	2.4137911e-05
31	0x00000000	0.0
32	0x29049b2d	2.944448e-14
33	0x33d97628	1.01263424e-07
34	0x33a33ed9	7.601711e-08
35	0x36585b0c	3.2239504e-06
36	0x32f4bf9f	2.8492478e-08
37	0x384bb743	4.8569647e-05
38	0x3757d90b	1.2865533e-05
39	0x32a49eff	1.9164416e-08
40	0x34f37214	4.534528e-07
41	0x330f9e08	3.343851e-08
42	0x368b9254	4.1595576e-06
43	0x3578138b	9.241564e-07
44	0x38085e44	3.251272e-05
45	0x343a75b8	1.7365426e-07
46	0x37387448	1.09943285e-05
47	0x338c6925	6.538384e-08
48	0x384312c3	4.6509096e-05
49	0x38467b48	4.7321693e-05
50	0x354bf889	7.598506e-07
51	0x381795f5	3.6140864e-05
52	0x268ee0fe	9.914214e-16
53	0x3748356c	1.1933367e-05
54	0x27b60a9a	5.052664e-15
55	0x37830cc7	1.5622367e-05
56	0x38557ea7	5.090111e-05
57	0x27131aa4	2.041479e-15
58	0x3897ed4f	7.244443e-05
59	0x35178431	5.644425e-07

exp_avg f4 [2]
0	0xb4068ff0	-1.2532087e-07
1	0x3400a0d8	1.1979444e-07

exp_avg_sq f4 [2]
0	0x387b92d6	5.9979815e-05
1	0x387b92d6	5.9979815e-05
