lightning_logs/version_4/checkpoints/epoch=0-step=3166.ckpt (torch, 290659 bytes, 12 tensors)

neural_predicates.digit.net.0.weight f4 [30, 784]
0	0xbd1ac0f3	-0.037781667
1	0xbc8df4b0	-0.01732859
2	0xbc02163f	-0.007939874
3	0x3c1aaf4f	0.009441211
4	0xbc1082f0	-0.00882028
5	0xbd2569ab	-0.040383976
6	0xbcc452f5	-0.023965338
7	0xbcb2ea5e	-0.02184027
8	0xbd07a4a7	-0.03311601
9	0xbd3548eb	-0.044258993
10	0x3a7eac6e	0.0009715025
11	0xbc2e49b5	-0.01063769
12	0x3ca23b56	0.019803684
13	0x3bd78fee	0.006578437
14	0x3c48a623	0.012246641
15	0x3c92b25b	0.017907312
16	0xbd1caec1	-0.038252596
17	0xbcb97429	-0.022638397
18	0xbc817f83	-0.015807873
19	0xbd29a852	-0.04142029
20	0xbceeee93	-0.029166495
21	0xbd14b8e7	-0.03630915
22	0xbc96e23e	-0.018418428
23	0x3af04c2c	0.0018333248
24	0xbd1539c7	-0.036432054
25	0xbd35dc3b	-0.04439948
26	0xbcf544cd	-0.029940033
27	0x3b5c1ed9	0.0033587723
28	0xbc57c7d2	-0.0131701995
29	0x3c0cc4e7	0.008591867
30	0x3c1ed7a2	0.009694966
31	0x3c2f0274	0.010681737
32	0xbd26893a	-0.040658213
33	0xbc068060	-0.008209318
34	0xbcaff006	-0.021476757
35	0x3c8b4358	0.016999885
36	0x3bfaf279	0.0076582995
37	0xbcfad5bc	-0.030619495
38	0xbc1d1f9a	-0.009590054
39	0xbd45d6a1	-0.04830039
40	0x3ba67779	0.00508016
41	0xbd1c82f0	-0.03821081
42	0x3c46d20e	0.012135042
43	0xbb9c3786	-0.004767361
44	0xbd1278e9	-0.03575984
45	0x3c9e1ed9	0.019301819
46	0xbd45d943	-0.0483029
47	0x3c1e70fb	0.009670491
48	0xbc2840dc	-0.01026937
49	0xbc7a7ce0	-0.015288562
50	0xbc69a3c2	-0.014260234
51	0x3afa2d76	0.0019087035
52	0x3c1b63be	0.00948423
53	0xbcef3d0c	-0.029203914
54	0xbc8092f5	-0.015695075
55	0x3c37d776	0.0112208035
56	0xba66747e	-0.00087911624
57	0x3c996747	0.018726004
58	0xbbe4179f	-0.0069608237
59	0xbd186b37	-0.037211623
60	0xbc6be31d	-0.01439741
61	0x3bd1239d	0.0063824193
62	0x3c5e545d	0.013569918
63	0xba6f09f4	-0.00091186096
64	0xbc135281	-0.008991838
65	0xbd40cac2	-0.047068365
66	0xbd245309	-0.04011825
67	0xbbea8ec3	-0.007158132
68	0x3c99a9e6	0.018757772
69	0x3c5350da	0.0128976945
70	0xbc990f76	-0.01868413
71	0xbb1368cf	-0.002249289
72	0xbc892b00	-0.016744137
73	0xbbf060d1	-0.00733576
74	0x3c960568	0.018313125
75	0xbcba61f2	-0.022751782
76	0xbc63a7c6	-0.013894981
77	0xbd14b0a4	-0.03630127
78	0x3bc45a6c	0.0059922244
79	0xbce0e0a2	-0.027450863
80	0xbc104f14	-0.008807916
81	0x3c62f1d4	0.013851602
82	0xbcbb3775	-0.022853592
83	0xbc0e4eb7	-0.008685759
84	0xbc5be8c1	-0.013422192
85	0xbd3fdeaf	-0.046843227
86	0xbcfef264	-0.03112144
87	0xbcf3c50d	-0.029757047
88	0x3c65719d	0.014004138
89	0x3be62da2	0.007024483
90	0xbce03d4c	-0.027372979
91	0xbc401d88	-0.011725791
92	0xbd0e568e	-0.034750514
93	0xbaa53ab6	-0.0012605998
94	0xbc1d7c15	-0.009612103
95	0xbbb507f4	-0.0055246297
96	0xbd40d291	-0.04707581
97	0x3c5207e9	0.012819269
98	0xbca9110e	-0.020638015
99	0xbb6b104d	-0.003586787
100	0xbbe6f264	-0.007047938
101	0xbd010562	-0.031499274
102	0x3b5db44b	0.0033829387
103	0xbb5e7f0d	-0.003395024
104	0xbaa1c1cc	-0.0012341081
105	0xbce69dae	-0.02815136
106	0xbd457c07	-0.048213985
107	0xbbb88c24	-0.0056319404
108	0xbd0ddef0	-0.034636438
109	0x3bd7320e	0.0065672463
110	0xbd4373eb	-0.04771797
111	0xbccd32d3	-0.025048649
112	0xbd068834	-0.032844737
113	0xbd37f529	-0.044911537
114	0x3c597587	0.01327265
115	0x3b808430	0.003922008
116	0xbc226cb6	-0.009913614
117	0xbcf727dd	-0.030170375
118	0xbd167418	-0.03673181
119	0xbca56881	-0.020191433
120	0xbc806b07	-0.015676035
121	0xbd07724a	-0.03306798
122	0x3c93df02	0.018050674
123	0xbd01bd5e	-0.031674735
124	0xbb605b35	-0.003423405
125	0xbc657a25	-0.014006172
126	0xbc6d336e	-0.014477594
127	0xbd14e903	-0.03635503
128	0xbd2ba891	-0.041908804
129	0x3bc29ac3	0.005938859
130	0xbd29f5f2	-0.041494317
131	0x3c06774d	0.008207154
132	0x3cf7a726	0.03023107
133	0xbc451837	-0.012029699
134	0xbc075c12	-0.008261697
135	0xbc92b3b9	-0.017907964
136	0xbcecd363	-0.02890939
137	0x3c15e8c0	0.00914973
138	0xbc9f0887	-0.019413246
139	0xbd2e7228	-0.042589337
140	0xbd46f1d8	-0.048570484
141	0x3a08dead	0.00052211696
142	0xbc305f12	-0.010764854
143	0xbd2c9fd6	-0.04214462
144	0xbbfaf229	-0.0076582623
145	0xbd01c5a1	-0.031682614
146	0xbd2ee639	-0.042700026
147	0x3b3429a6	0.0027490645
148	0xbc18e751	-0.009332494
149	0xbbbf73f0	-0.0058426782
150	0xbd26479a	-0.04059563
151	0xbd204516	-0.039128385
152	0x3c870c5a	0.016485382
153	0xbc267bcb	-0.0101613505
154	0x3b4a548d	0.003087315
155	0xbd30197e	-0.04299306
156	0xbcf9d61b	-0.030497601
157	0x3c6983cb	0.014252613
158	0xbca059fd	-0.01957416
159	0xbcf42da3	-0.029806918
160	0xbd0ce86d	-0.034401346
161	0xbc558237	-0.013031534
162	0xbd3f5020	-0.046707273
163	0xbce9532e	-0.028482046
164	0x3a0edf98	0.0005450188
165	0xbcbb5979	-0.022869812
166	0x3ca23eef	0.0198054
167	0x3c47d16f	0.012195929
168	0x3c6e8c6f	0.014559849
169	0x3c8c85e8	0.017153695
170	0xbbf5174f	-0.0074795852
171	0xbd3178d5	-0.043328125
172	0x3c323fdd	0.010879484
173	0xbcaac691	-0.020846637
174	0xbd09b24a	-0.033617295
175	0xbcaf0baf	-0.021367876
176	0xbb8e764f	-0.0043475996
177	0x39015cf1	0.00012337022
178	0xbcf93f6b	-0.030425748
179	0xbcfdb69a	-0.03097086
180	0xbc29edc7	-0.010371632
181	0x3c274611	0.010209576
182	0xbc268d79	-0.010165566
183	0xbcaaa182	-0.020828966
184	0x3c908132	0.01763973
185	0x3b991564	0.0046717394
186	0xbc77e520	-0.015130311
187	0x3c8d8861	0.017276945
188	0x3cf472ea	0.029839952
189	0x3cb5f4cf	0.02221146
190	0xbcaf6455	-0.021410147
191	0x3b97c385	0.004631462
192	0xbcd04654	-0.02542416
193	0x3c87baa4	0.01656849
194	0xbd0e59f4	-0.034753755
195	0xbd333155	-0.04374822
196	0xbc110ef2	-0.008853661
197	0xbcb988c5	-0.022648225
198	0xbc933309	-0.017968671
199	0xbd05c24d	-0.032656003
200	0xbc8c6c7d	-0.017141575
201	0xbc7fed14	-0.015620489
202	0xbcd0a28d	-0.025468135
203	0xbcd91f53	-0.026504194
204	0x3cc2b584	0.023768194
205	0x3c35292f	0.011057182
206	0xbb9cd2f3	-0.0047858893
207	0xb92795c0	-0.00015982147
208	0x3c85ae1e	0.016318377
209	0x3cdcdcc1	0.026960732
210	0x3d0f3f22	0.034972318
211	0xb9dd1ac5	-0.0004217235
212	0x3ad96c61	0.0016588086
213	0xbc1118ec	-0.0088560395
214	0x3cdd7b1b	0.02703624
215	0xbca3f432	-0.020013902
216	0xbc25ee1c	-0.0101275705
217	0xbbe6d2f0	-0.0070441887
218	0x3c092bad	0.0083722295
219	0x3b0d94e2	0.0021603634
220	0xbbfe063b	-0.0077522076
221	0xbbe6a392	-0.007038542
222	0xbc358e9c	-0.011081364
223	0xbc1849da	-0.009294951
224	0xbc87f0e0	-0.01659435
225	0xbba9182b	-0.0051603517
226	0xbbdac584	-0.0066763777
227	0x3c215788	0.009847529
228	0xbc89b48f	-0.01680973
229	0xbc86dec6	-0.016463649
230	0x3cb0f7f8	0.021602616
231	0xbb4c2cb1	-0.0031154568
232	0xba8fccfe	-0.0010971127
233	0x3c88b7ac	0.016689144
234	0xbca8a5c5	-0.020586858
235	0xbd200579	-0.03906772
236	0xbccd96df	-0.025096355
237	0xbb8e6213	-0.0043451875
238	0xbc465151	-0.012104348
239	0x3c8c773a	0.017146695
240	0x3c2cbf1b	0.01054361
241	0xba9d4a24	-0.0012000245
242	0xbc7fa630	-0.015603587
243	0x3d01cedf	0.03169143
244	0x3c887605	0.016657839
245	0x3c69e91e	0.014276771
246	0xbb8dbd86	-0.0043255715
247	0xbd19c98c	-0.037545726
248	0xbb2208bd	-0.0024724447
249	0xbb0ca6f2	-0.0021461812
250	0x3b7f140f	0.0038921868
251	0xbd2522ca	-0.04031638
252	0xbbf8a75c	-0.00758831
253	0xbc63e0a4	-0.013908539
254	0xbd161b25	-0.03664698
255	0xbd1c7924	-0.038201466

neural_predicates.digit.net.0.bias f4 [30]
0	0x3d3eb455	0.046558697
1	0x3c9dbbb4	0.019254543
2	0xbcfc6b46	-0.03081287
3	0xbc12c574	-0.008958209
4	0x3c0701b7	0.008240155
5	0x3c87918e	0.016548898
6	0x3c85286f	0.016254632
7	0x3befc2c2	0.007316918
8	0xbcb2d1f9	-0.021828638
9	0x3cdf70c7	0.027275456
10	0xbc404908	-0.011736162
11	0x3c56d993	0.013113397
12	0xbd00e896	-0.03147181
13	0x3c082ea5	0.008311902
14	0x3c93c6f6	0.018039208
15	0x3c5000c6	0.012695497
16	0x3cd7ecca	0.026358027
17	0xbcba2e2e	-0.022727098
18	0x3ce0316b	0.027367314
19	0x3cd7811a	0.026306678
20	0x3ce7004d	0.028198386
21	0xbd18d5f1	-0.037313405
22	0xbbeff773	-0.0073231994
23	0x3c76d8d4	0.015066344
24	0xbc9f1877	-0.019420845
25	0x3c0ac2e6	0.008469319
26	0x3c89238a	0.01674058
27	0x3c822ce6	0.01589055
28	0x3c255085	0.010089998
29	0xbc8587e0	-0.016300142

neural_predicates.digit.net.2.weight f4 [2, 30]
0	0x3dc01eaf	0.093808524
1	0x3d7390f3	0.059464406
2	0xbe192abf	-0.14957713
3	0xbd0628ec	-0.03275387
4	0x3dbe3f0b	0.09289368
5	0xbe27b898	-0.1637901
6	0xbe18b47a	-0.14912596
7	0xbdc51a5f	-0.096241705
8	0xbd678a88	-0.056528598
9	0xbdd665d8	-0.10468644
10	0xbdddba61	-0.108265646
11	0xbe1b66c9	-0.15175928
12	0xbdd3bd21	-0.10338808
13	0x3cc4dac1	0.024030091
14	0xbd88f159	-0.066866584
15	0xbdf11c5c	-0.11772987
16	0xbd9754b0	-0.073892
17	0xbe1eaef0	-0.15496421
18	0x3e6c6d23	0.23088507
19	0x3dd157f2	0.10221852
20	0x3d1858c4	0.03719403
21	0xbe20a940	-0.15689564
22	0x3df36e4c	0.11886272
23	0x3dcf9574	0.10135928
24	0xbdd48cdc	-0.10378429
25	0xbe20f4a4	-0.15718323
26	0xbdefb65e	-0.11704706
27	0x3e0920c3	0.13391404
28	0x3e02998d	0.12753887
29	0x3e0c2480	0.13685799
30	0x3d238cd1	0.039929215
31	0xbcf26d16	-0.029593032
32	0x3e120051	0.14257933
33	0x3cef88c7	0.029240025
34	0xbdf6288a	-0.12019451
35	0x3ddd87d5	0.108169235
36	0x3ce39f9a	0.027786065
37	0x3dc229be	0.09480618
38	0x3dacf092	0.08444323
39	0xbd9921de	-0.07477163
40	0xbde23980	-0.110461235
41	0xbdf3a23f	-0.1189618
42	0x3c4572f9	0.012051337
43	0x3dd385df	0.10328268
44	0x3e257676	0.1615847
45	0xbde102fc	-0.10986897
46	0xbd25b3d7	-0.04045471
47	0xbdb35442	-0.08756305
48	0xbd0b9cca	-0.034085073
49	0xbe1edd71	-0.1551416
50	0x3d64fe1b	0.055906396
51	0x3df79ed5	0.12090842
52	0xbe3bc2dd	-0.18336053
53	0xbe035dd4	-0.12828761
54	0x3cda82e2	0.026673738
55	0x3e14087d	0.14456363
56	0xbd374a62	-0.04474867
57	0xbdfe8648	-0.12427956
58	0x3d0c905a	0.034317352
59	0xbce1dd80	-0.02757144

neural_predicates.digit.net.2.bias f4 [2]
0	0x3e035909	0.12826933
1	0x3df5490a	0.11976822

exp_avg f4 [30, 784]
0	0x2ee03100	1.0195045e-10
1	0x2ee03100	1.0195045e-10
2	0x2ee03100	1.0195045e-10
3	0x2ee03100	1.0195045e-10
4	0x2ee03100	1.0195045e-10
5	0x2ee03100	1.0195045e-10
6	0x2ee03100	1.0195045e-10
7	0x2ee03100	1.0195045e-10
8	0x2ee03100	1.0195045e-10
9	0x2ee03100	1.0195045e-10
10	0x2ee03100	1.0195045e-10
11	0x2ee03100	1.0195045e-10
12	0x2ee03100	1.0195045e-10
13	0x2ee03100	1.0195045e-10
14	0x2ee03100	1.0195045e-10
15	0x2ee03100	1.0195045e-10
16	0x2ee03100	1.0195045e-10
17	0x2ee03100	1.0195045e-10
18	0x2ee03100	1.0195045e-10
19	0x2ee03100	1.0195045e-10
20	0x2ee03100	1.0195045e-10
21	0x2ee03100	1.0195045e-10
22	0x2ee03100	1.0195045e-10
23	0x2ee03100	1.0195045e-10
24	0x2ee03100	1.0195045e-10
25	0x2ee03100	1.0195045e-10
26	0x2ee03100	1.0195045e-10
27	0x2ee03100	1.0195045e-10
28	0x2ee03100	1.0195045e-10
29	0x2ee03100	1.0195045e-10
30	0x2ee03100	1.0195045e-10
31	0x2ee03100	1.0195045e-10
32	0x2ee03100	1.0195045e-10
33	0x2ee03100	1.0195045e-10
34	0x2ee03100	1.0195045e-10
35	0x2ee03100	1.0195045e-10
36	0x2ee03100	1.0195045e-10
37	0x2ee03100	1.0195045e-10
38	0x2ee03100	1.0195045e-10
39	0x2ee03100	1.0195045e-10
40	0x2ee03100	1.0195045e-10
41	0x2ee03100	1.0195045e-10
42	0x2ee03100	1.0195045e-10
43	0x2ee03100	1.0195045e-10
44	0x2ee03100	1.0195045e-10
45	0x2ee03100	1.0195045e-10
46	0x2ee03100	1.0195045e-10
47	0x2ee03100	1.0195045e-10
48	0x2ee03100	1.0195045e-10
49	0x2ee03100	1.0195045e-10
50	0x2ee03100	1.0195045e-10
51	0x2ee03100	1.0195045e-10
52	0x2ee03100	1.0195045e-10
53	0x2ee03100	1.0195045e-10
54	0x2ee03100	1.0195045e-10
55	0x2ee03100	1.0195045e-10
56	0x2ee03100	1.0195045e-10
57	0x2ee03100	1.0195045e-10
58	0x2ee03100	1.0195045e-10
59	0x2ee03100	1.0195045e-10
60	0x2ee03100	1.0195045e-10
61	0x2ee03100	1.0195045e-10
62	0x2ee03100	1.0195045e-10
63	0x2ee03100	1.0195045e-10
64	0x2ee03100	1.0195045e-10
65	0x2ee03100	1.0195045e-10
66	0x2ee03100	1.0195045e-10
67	0x2ee03100	1.0195045e-10
68	0x2ee03100	1.0195045e-10
69	0x2ee03100	1.0195045e-10
70	0x2ee03100	1.0195045e-10
71	0x2ee03100	1.0195045e-10
72	0x2ee03100	1.0195045e-10
73	0x2ee03100	1.0195045e-10
74	0x2ee03100	1.0195045e-10
75	0x2ee03100	1.0195045e-10
76	0x2ee03100	1.0195045e-10
77	0x2ee03100	1.0195045e-10
78	0x2ee03100	1.0195045e-10
79	0x2ee03100	1.0195045e-10
80	0x2ee03100	1.0195045e-10
81	0x2ee03100	1.0195045e-10
82	0x2ee03100	1.0195045e-10
83	0x2ee03100	1.0195045e-10
84	0x2ee03100	1.0195045e-10
85	0x2ee03100	1.0195045e-10
86	0x2ee03100	1.0195045e-10
87	0x2ee03100	1.0195045e-10
88	0x2ee03100	1.0195045e-10
89	0x2ee03100	1.0195045e-10
90	0x2ee03100	1.0195045e-10
91	0x2ee03100	1.0195045e-10
92	0x2ee03100	1.0195045e-10
93	0x2ee03100	1.0195045e-10
94	0x2ee03100	1.0195045e-10
95	0x2ee03100	1.0195045e-10
96	0x2ee03100	1.0195045e-10
97	0x2ee03100	1.0195045e-10
98	0x2ee03100	1.0195045e-10
99	0x2ee03100	1.0195045e-10
100	0x2ee03100	1.0195045e-10
101	0x2ee03100	1.0195045e-10
102	0x2ee03100	1.0195045e-10
103	0x2ee03100	1.0195045e-10
104	0x2ee03100	1.0195045e-10
105	0x2ee03100	1.0195045e-10
106	0x2ee03100	1.0195045e-10
107	0x2ee03100	1.0195045e-10
108	0x2ee03100	1.0195045e-10
109	0x2ee03100	1.0195045e-10
110	0x2ee03100	1.0195045e-10
111	0x2ee03100	1.0195045e-10
112	0x2ee03100	1.0195045e-10
113	0x2ee03100	1.0195045e-10
114	0x2ee03100	1.0195045e-10
115	0x2ee03100	1.0195045e-10
116	0x2ee03100	1.0195045e-10
117	0x2ee03100	1.0195045e-10
118	0x2ee03100	1.0195045e-10
119	0x2ee03100	1.0195045e-10
120	0x2ee03100	1.0195045e-10
121	0x2ee03100	1.0195045e-10
122	0x2ee03100	1.0195045e-10
123	0x2ee03100	1.0195045e-10
124	0x2ee03100	1.0195045e-10
125	0x2eec1533	1.0735803e-10
126	0x2eebfd54	1.0731563e-10
127	0x2ee433af	1.03774205e-10
128	0x2ee17f47	1.02544244e-10
129	0x2ee03100	1.0195045e-10
130	0x2ee03100	1.0195045e-10
131	0x2ee03100	1.0195045e-10
132	0x2ee03100	1.0195045e-10
133	0x2ee03100	1.0195045e-10
134	0x2ee03100	1.0195045e-10
135	0x2ee03100	1.0195045e-10
136	0x2ee03100	1.0195045e-10
137	0x2ee03100	1.0195045e-10
138	0x2ee03100	1.0195045e-10
139	0x2ee03100	1.0195045e-10
140	0x2ee03100	1.0195045e-10
141	0x2ee03100	1.0195045e-10
142	0x2ee03100	1.0195045e-10
143	0x2ee03100	1.0195045e-10
144	0x2ee03100	1.0195045e-10
145	0x2ee03100	1.0195045e-10
146	0x2ee03100	1.0195045e-10
147	0x2ee03100	1.0195045e-10
148	0x2ee03100	1.0195045e-10
149	0x2ee03100	1.0195045e-10
150	0x2ee03100	1.0195045e-10
151	0x2ee03100	1.0195045e-10
152	0x2ee581f2	1.0436797e-10
153	0x2eebfd54	1.0731563e-10
154	0x2eebe574	1.0727322e-10
155	0x2eebfd54	1.0731563e-10
156	0x2ee954dc	1.0610687e-10
157	0x2ee03100	1.0195045e-10
158	0x2ee03100	1.0195045e-10
159	0x2ee03100	1.0195045e-10
160	0x2ee03100	1.0195045e-10
161	0x2ee03100	1.0195045e-10
162	0x2ee03100	1.0195045e-10
163	0x2ee03100	1.0195045e-10
164	0x2ee03100	1.0195045e-10
165	0x2ee03100	1.0195045e-10
166	0x2ee03100	1.0195045e-10
167	0x2ee03100	1.0195045e-10
168	0x2ee03100	1.0195045e-10
169	0x2ee03100	1.0195045e-10
170	0x2ee03100	1.0195045e-10
171	0x2ee03100	1.0195045e-10
172	0x2ee03100	1.0195045e-10
173	0x2ee03100	1.0195045e-10
174	0x2ee03100	1.0195045e-10
175	0x2ee03100	1.0195045e-10
176	0xaeec1533	-1.0735803e-10
177	0xaeec1533	-1.0735803e-10
178	0xaeec1533	-1.0735803e-10
179	0xaee581f2	-1.0436797e-10
180	0xaee048e2	-1.0199287e-10
181	0xaee03cf0	-1.0197165e-10
182	0xaee048e2	-1.0199287e-10
183	0x2eec0947	1.07336855e-10
184	0x2eebfd54	1.0731563e-10
185	0x2eec0947	1.07336855e-10
186	0x2eebfd54	1.0731563e-10
187	0x2ee427bb	1.0375297e-10
188	0x2ee17f47	1.02544244e-10
189	0x2ee03100	1.0195045e-10
190	0x2ee03100	1.0195045e-10
191	0x2ee03100	1.0195045e-10
192	0x2ee03100	1.0195045e-10
193	0x2ee03100	1.0195045e-10
194	0x2ee03100	1.0195045e-10
195	0x2ee03100	1.0195045e-10
196	0x2ee03100	1.0195045e-10
197	0x2ee03100	1.0195045e-10
198	0x2ee03100	1.0195045e-10
199	0x2ee03100	1.0195045e-10
200	0x2ee03100	1.0195045e-10
201	0xaeec1533	-1.0735803e-10
202	0xaeec1533	-1.0735803e-10
203	0xaeec1533	-1.0735803e-10
204	0xaeec1533	-1.0735803e-10
205	0xaeec1533	-1.0735803e-10
206	0xaeec1533	-1.0735803e-10
207	0xaee048e2	-1.0199287e-10
208	0xaee060c1	-1.02035276e-10
209	0xaee048e2	-1.0199287e-10
210	0xaee5a5c3	-1.04431595e-10
211	0xaee82a6d	-1.0557675e-10
212	0xaee2f15c	-1.0320164e-10
213	0xaee048e2	-1.0199287e-10
214	0xaee060c1	-1.02035276e-10
215	0x2eebfd54	1.0731563e-10
216	0x2ee954dc	1.0610687e-10
217	0x2ee03100	1.0195045e-10
218	0x2ee03100	1.0195045e-10
219	0x2ee03100	1.0195045e-10
220	0x2ee03100	1.0195045e-10
221	0x2ee03100	1.0195045e-10
222	0x2ee03100	1.0195045e-10
223	0x2ee03100	1.0195045e-10
224	0x2ee03100	1.0195045e-10
225	0x2ee03100	1.0195045e-10
226	0x2ee03100	1.0195045e-10
227	0x2ee03100	1.0195045e-10
228	0x2ee03100	1.0195045e-10
229	0xaeec1533	-1.0735803e-10
230	0xaeec1533	-1.0735803e-10
231	0xaeec1533	-1.0735803e-10
232	0xaeec1533	-1.0735803e-10
233	0xaeeabb01	-1.06743066e-10
234	0xaee2e569	-1.03180416e-10
235	0xaee03100	-1.0195045e-10
236	0xaee048e2	-1.0199287e-10
237	0xaee6c448	-1.04940556e-10
238	0xaeec1533	-1.0735803e-10
239	0xaeec1533	-1.0735803e-10
240	0xaeec1533	-1.0735803e-10
241	0xaee96cbd	-1.0614929e-10
242	0xaee43f9c	-1.0379539e-10
243	0xaee03cf0	-1.0197165e-10
244	0x2eebfd54	1.0731563e-10
245	0x2ee2d978	1.031592e-10
246	0x2ee03100	1.0195045e-10
247	0x2ee03100	1.0195045e-10
248	0x2ee03100	1.0195045e-10
249	0x2ee03100	1.0195045e-10
250	0x2ee03100	1.0195045e-10
251	0x2ee03100	1.0195045e-10
252	0x2ee03100	1.0195045e-10
253	0x2ee03100	1.0195045e-10
254	0x2ee03100	1.0195045e-10
255	0x2ee03100	1.0195045e-10

exp_avg_sq f4 [30, 784]
0	0x33abb29f	7.995299e-08
1	0x33abb29f	7.995299e-08
2	0x33abb29f	7.995299e-08
3	0x33abb29f	7.995299e-08
4	0x33abb29f	7.995299e-08
5	0x33abb29f	7.995299e-08
6	0x33abb29f	7.995299e-08
7	0x33abb29f	7.995299e-08
8	0x33abb29f	7.995299e-08
9	0x33abb29f	7.995299e-08
10	0x33abb29f	7.995299e-08
11	0x33abb29f	7.995299e-08
12	0x33abb29f	7.995299e-08
13	0x33abb29f	7.995299e-08
14	0x33abb29f	7.995299e-08
15	0x33abb29f	7.995299e-08
16	0x33abb29f	7.995299e-08
17	0x33abb29f	7.995299e-08
18	0x33abb29f	7.995299e-08
19	0x33abb29f	7.995299e-08
20	0x33abb29f	7.995299e-08
21	0x33abb29f	7.995299e-08
22	0x33abb29f	7.995299e-08
23	0x33abb29f	7.995299e-08
24	0x33abb29f	7.995299e-08
25	0x33abb29f	7.995299e-08
26	0x33abb29f	7.995299e-08
27	0x33abb29f	7.995299e-08
28	0x33abb29f	7.995299e-08
29	0x33abb29f	7.995299e-08
30	0x33abb29f	7.995299e-08
31	0x33abb29f	7.995299e-08
32	0x33abb29f	7.995299e-08
33	0x33abb29f	7.995299e-08
34	0x33abb29f	7.995299e-08
35	0x33abb29f	7.995299e-08
36	0x33abb29f	7.995299e-08
37	0x33abb29f	7.995299e-08
38	0x33abb29f	7.995299e-08
39	0x33abb29f	7.995299e-08
40	0x33abb29f	7.995299e-08
41	0x33abb29f	7.995299e-08
42	0x33abb29f	7.995299e-08
43	0x33abb29f	7.995299e-08
44	0x33abb29f	7.995299e-08
45	0x33abb29f	7.995299e-08
46	0x33abb29f	7.995299e-08
47	0x33abb29f	7.995299e-08
48	0x33abb29f	7.995299e-08
49	0x33abb29f	7.995299e-08
50	0x33abb29f	7.995299e-08
51	0x33abb29f	7.995299e-08
52	0x33abb29f	7.995299e-08
53	0x33abb29f	7.995299e-08
54	0x33abb29f	7.995299e-08
55	0x33abb29f	7.995299e-08
56	0x33abb29f	7.995299e-08
57	0x33abb29f	7.995299e-08
58	0x33abb29f	7.995299e-08
59	0x33abb29f	7.995299e-08
60	0x33abb29f	7.995299e-08
61	0x33abb29f	7.995299e-08
62	0x33abb29f	7.995299e-08
63	0x33abb29f	7.995299e-08
64	0x33abb29f	7.995299e-08
65	0x33abb29f	7.995299e-08
66	0x33abb29f	7.995299e-08
67	0x33abb29f	7.995299e-08
68	0x33abb29f	7.995299e-08
69	0x33abb29f	7.995299e-08
70	0x33abb29f	7.995299e-08
71	0x33abb29f	7.995299e-08
72	0x33abb29f	7.995299e-08
73	0x33abb29f	7.995299e-08
74	0x33abb29f	7.995299e-08
75	0x33abb29f	7.995299e-08
76	0x33abb29f	7.995299e-08
77	0x33abb29f	7.995299e-08
78	0x33abb29f	7.995299e-08
79	0x33abb29f	7.995299e-08
80	0x33abb29f	7.995299e-08
81	0x33abb29f	7.995299e-08
82	0x33abb29f	7.995299e-08
83	0x33abb29f	7.995299e-08
84	0x33abb29f	7.995299e-08
85	0x33abb29f	7.995299e-08
86	0x33abb29f	7.995299e-08
87	0x33abb29f	7.995299e-08
88	0x33abb29f	7.995299e-08
89	0x33abb29f	7.995299e-08
90	0x33abb29f	7.995299e-08
91	0x33abb29f	7.995299e-08
92	0x33abb29f	7.995299e-08
93	0x33abb29f	7.995299e-08
94	0x33abb29f	7.995299e-08
95	0x33abb29f	7.995299e-08
96	0x33abb29f	7.995299e-08
97	0x33abb29f	7.995299e-08
98	0x33abb29f	7.995299e-08
99	0x33abb29f	7.995299e-08
100	0x33abb29f	7.995299e-08
101	0x33abb29f	7.995299e-08
102	0x33abb29f	7.995299e-08
103	0x33abb29f	7.995299e-08
104	0x33abb29f	7.995299e-08
105	0x33abb29f	7.995299e-08
106	0x33abb29f	7.995299e-08
107	0x33abb29f	7.995299e-08
108	0x33abb29f	7.995299e-08
109	0x33abb29f	7.995299e-08
110	0x33abb29f	7.995299e-08
111	0x33abb29f	7.995299e-08
112	0x33abb29f	7.995299e-08
113	0x33abb29f	7.995299e-08
114	0x33abb29f	7.995299e-08
115	0x33abb29f	7.995299e-08
116	0x33abb29f	7.995299e-08
117	0x33abb29f	7.995299e-08
118	0x33abb29f	7.995299e-08
119	0x339acd7b	7.2085605e-08
120	0x337c8c6e	5.8801042e-08
121	0x337d508a	5.8979403e-08
122	0x338d92ce	6.592528e-08
123	0x339357bc	6.86118e-08
124	0x338d6993	6.585028e-08
125	0x3396a8bf	7.015614e-08
126	0x3390c883	6.7419954e-08
127	0x338b8bd6	6.498128e-08
128	0x338371c8	6.1208596e-08
129	0x3376f42c	5.749841e-08
130	0x33315cb9	4.1295355e-08
131	0x33306475	4.106956e-08
132	0x338febb7	6.701833e-08
133	0x33a17da8	7.5200035e-08
134	0x3350da29	4.862719e-08
135	0x338c78d0	6.541234e-08
136	0x33a0c8ed	7.487129e-08
137	0x33abb29f	7.995299e-08
138	0x33abb29f	7.995299e-08
139	0x33abb29f	7.995299e-08
140	0x33abb29f	7.995299e-08
141	0x33abb29f	7.995299e-08
142	0x33abb29f	7.995299e-08
143	0x33abb29f	7.995299e-08
144	0x33abb29f	7.995299e-08
145	0x33abb29f	7.995299e-08
146	0x33abb29f	7.995299e-08
147	0x338ab48e	6.4589685e-08
148	0x337d18bd	5.8928652e-08
149	0x337d24e1	5.8939694e-08
150	0x3374fa84	5.703852e-08
151	0x334b6f22	4.7365695e-08
152	0x3375c99c	5.722687e-08
153	0x33756e97	5.714409e-08
154	0x334e12fe	4.7980386e-08
155	0x332dead4	4.0493276e-08
156	0x33202025	3.728214e-08
157	0x3322eb04	3.793231e-08
158	0x3354c168	4.9536e-08
159	0x338be32e	6.5140156e-08
160	0x339e12db	7.360878e-08
161	0x33a6dd25	7.770203e-08
162	0x3345a976	4.602176e-08
163	0x335ad68b	5.0952206e-08
164	0x338d1f3a	6.571504e-08
165	0x33abb29f	7.995299e-08
166	0x33abb29f	7.995299e-08
167	0x33abb29f	7.995299e-08
168	0x33abb29f	7.995299e-08
169	0x33abb29f	7.995299e-08
170	0x33abb29f	7.995299e-08
171	0x33abb29f	7.995299e-08
172	0x33abb29f	7.995299e-08
173	0x33abb29f	7.995299e-08
174	0x3386a15e	6.269214e-08
175	0x3381be5c	6.041657e-08
176	0x339186ce	6.7766095e-08
177	0x339e2306	7.363819e-08
178	0x336efd99	5.564434e-08
179	0x334b0afe	4.7274618e-08
180	0x33727b9a	5.645743e-08
181	0x337fa5b2	5.9522513e-08
182	0x337ce877	5.8884748e-08
183	0x32b8a181	2.1493863e-08
184	0x31c470b3	5.717163e-09
185	0x329a195b	1.793949e-08
186	0x3384af7a	6.178648e-08
187	0x338e91bd	6.6389e-08
188	0x33925f45	6.815984e-08
189	0x33a78f9d	7.8026666e-08
190	0x336d0522	5.518553e-08
191	0x33602d5a	5.219531e-08
192	0x3393a0e0	6.874484e-08
193	0x33abb29f	7.995299e-08
194	0x33abb29f	7.995299e-08
195	0x33abb29f	7.995299e-08
196	0x33abb29f	7.995299e-08
197	0x33abb29f	7.995299e-08
198	0x33abb29f	7.995299e-08
199	0x33abb29f	7.995299e-08
200	0x33abb29f	7.995299e-08
201	0x33a6bc9b	7.7642845e-08
202	0x337c6933	5.8769e-08
203	0x33a632b8	7.739203e-08
204	0x33a609dd	7.7317715e-08
205	0x3394337a	6.9011506e-08
206	0x336aec3a	5.4697217e-08
207	0x33378b07	4.2734452e-08
208	0x33733f50	5.663543e-08
209	0x3316d9c9	3.512267e-08
210	0x3318254e	3.5424186e-08
211	0x32c39bc1	2.2771816e-08
212	0x32c5627a	2.29786e-08
213	0x3313b0c3	3.438687e-08
214	0x332d5030	4.035263e-08
215	0x3314ca71	3.4643055e-08
216	0x3381035c	6.007642e-08
217	0x3398d53f	7.116841e-08
218	0x33514793	4.87267e-08
219	0x33a416ad	7.64097e-08
220	0x33abb29c	7.995297e-08
221	0x33abb29f	7.995299e-08
222	0x33abb29f	7.995299e-08
223	0x33abb29f	7.995299e-08
224	0x33abb29f	7.995299e-08
225	0x33abb29f	7.995299e-08
226	0x33abb29f	7.995299e-08
227	0x33abb29f	7.995299e-08
228	0x33abb29f	7.995299e-08
229	0x33a10605	7.498242e-08
230	0x3399db39	7.164494e-08
231	0x33aa9470	7.9432425e-08
232	0x3394d617	6.93073e-08
233	0x33491103	4.681443e-08
234	0x336d4789	5.5245923e-08
235	0x33597631	5.0631744e-08
236	0x3313c976	3.4409332e-08
237	0x3288429c	1.5862774e-08
238	0x32513efb	1.2179721e-08
239	0x3204c685	7.728549e-09
240	0x332c4406	4.0108738e-08
241	0x33528be3	4.902166e-08
242	0x334d54c4	4.7807376e-08
243	0x3320cbb6	3.7438177e-08
244	0x333d4f85	4.4077314e-08
245	0x3327d5cb	3.907716e-08
246	0x3394fc7d	6.9377144e-08
247	0x33a0fc50	7.496476e-08
248	0x33abb23d	7.9952294e-08
249	0x33abb29f	7.995299e-08
250	0x33abb29f	7.995299e-08
251	0x33abb29f	7.995299e-08
252	0x33abb29f	7.995299e-08
253	0x33abb29f	7.995299e-08
254	0x33abb29f	7.995299e-08
255	0x33abb29f	7.995299e-08

exp_avg f4 [30]
0	0xaee03100	-1.0195045e-10
1	0xaf46ee69	-1.8092695e-10
2	0x00000004	6e-45
3	0x00000004	6e-45
4	0xaff18498	-4.3931858e-10
5	0x00000004	6e-45
6	0x00000004	6e-45
7	0x00000004	6e-45
8	0x00000004	6e-45
9	0x00000004	6e-45
10	0x00000004	6e-45
11	0x00000004	6e-45
12	0x00000004	6e-45
13	0x00000004	6e-45
14	0x00000004	6e-45
15	0x00000004	6e-45
16	0x00000004	6e-45
17	0x00000004	6e-45
18	0xb011e688	-5.30783e-10
19	0xb012343e	-5.318873e-10
20	0x00000004	6e-45
21	0x00000004	6e-45
22	0xb02bbb8f	-6.2475974e-10
23	0xb0021931	-4.7329524e-10
24	0x00000004	6e-45
25	0x00000004	6e-45
26	0x00000004	6e-45
27	0xb0116d7a	-5.290627e-10
28	0xaf46e93a	-1.8090854e-10
29	0xafb5b6f3	-3.3053701e-10

exp_avg_sq f4 [30]
0	0x33abb29f	7.995299e-08
1	0x34375726	1.7074908e-07
2	0x36be48d0	5.6709177e-06
3	0x34b2d935	3.3313123e-07
4	0x363349f1	2.6716118e-06
5	0x35bbb518	1.3985291e-06
6	0x36129858	2.184437e-06
7	0x3649496d	2.9994073e-06
8	0x35d7825c	1.6056688e-06
9	0x3300f239	3.0022623e-08
10	0x325e04f4	1.2923227e-08
11	0x3313750b	3.4332555e-08
12	0x349cf042	2.9232075e-07
13	0x1f95acc5	6.338978e-20
14	0x2f51b6f9	1.9073444e-10
15	0x3258f0d3	1.2627612e-08
16	0x2601edbb	4.507805e-16
17	0x33e94664	1.0862712e-07
18	0x2b341db3	6.399006e-13
19	0x356f865a	8.9229945e-07
20	0x33731647	5.6598108e-08
21	0x3690c259	4.3141595e-06
22	0x36c18e9a	5.7684492e-06
23	0x367294e8	3.6147485e-06
24	0x35cd0728	1.5275773e-06
25	0x35e53639	1.707761e-06
26	0x23fe12fc	2.7546775e-17
27	0x2b115898	5.1637297e-13
28	0x34502e4c	1.9388352e-07
29	0x360160ad	1.927877e-06

exp_avg f4 [2, 30]
0	0xb27a28b0	-1.45611665e-08
1	0xb236c4e2	-1.063856e-08
2	0x80000004	-6e-45
3	0x80000004	-6e-45
4	0xb261adc8	-1.3136237e-08
5	0x80000004	-6e-45
6	0x80000004	-6e-45
7	0x80000004	-6e-45
8	0x80000004	-6e-45
9	0x80000004	-6e-45
10	0x80000004	-6e-45
11	0x80000004	-6e-45
12	0x80000004	-6e-45
13	0x80000004	-6e-45
14	0x80000004	-6e-45
15	0x80000004	-6e-45
16	0x80000004	-6e-45
17	0x80000004	-6e-45
18	0xb3037490	-3.0606827e-08
19	0xb1e90713	-6.7819967e-09
20	0x80000004	-6e-45
21	0x80000004	-6e-45
22	0xb254f06c	-1.239469e-08
23	0xb239758b	-1.07951434e-08
24	0x80000004	-6e-45
25	0x80000004	-6e-45
26	0x80000004	-6e-45
27	0xb30894ad	-3.1800187e-08
28	0xb258cf68	-1.26200135e-08
29	0xb22a085e	-9.897205e-09
30	0x32856629	1.5529695e-08
31	0x3244960f	1.1442821e-08
32	0x00000004	6e-45
33	0x00000004	6e-45
34	0x32709657	1.4004022e-08
35	0x00000004	6e-45
36	0x00000004	6e-45
37	0x00000004	6e-45
38	0x00000004	6e-45
39	0x00000004	6e-45
40	0x00000004	6e-45
41	0x00000004	6e-45
42	0x00000004	6e-45
43	0x00000004	6e-45
44	0x00000004	6e-45
45	0x00000004	6e-45
46	0x00000004	6e-45
47	0x00000004	6e-45
48	0x330cea2d	3.280927e-08
49	0x31fbf474	7.3328525e-09
50	0x00000004	6e-45
51	0x00000004	6e-45
52	0x3263ad34	1.3252521e-08
53	0x3247a90a	1.16217596e-08
54	0x00000004	6e-45
55	0x00000004	6e-45
56	0x00000004	6e-45
57	0x3312adcf	3.4151352e-08
58	0x32680a5d	1.3506534e-08
59	0x3236ec62	1.06475415e-08

exp_avg_sq f4 [2, 30]
0	0x395eed67	0.00021260009
1	0x37c8f58d	2.3956201e-05
2	0x34de7f01	4.144313e-07
3	0x36c14406	5.759767e-06
4	0x382a1b33	4.055649e-05
5	0x3644779b	2.9275895e-06
6	0x3706b0c7	8.028182e-06
7	0x362c5362	2.5678532e-06
8	0x372ad049	1.0181285e-05
9	0x35a1cef3	1.2055665e-06
10	0x34ce5080	3.8429062e-07
11	0x30a7ee4d	1.2218578e-09
12	0x35be454f	1.4176275e-06
13	0x1c97db43	1.004902e-21
14	0x2bf49dbb	1.7381022e-12
15	0x364dc4f9	3.0662034e-06
16	0x24ed2db8	1.02859817e-16
17	0x34e4b488	4.2599663e-07
18	0x2f2abe81	1.552909e-10
19	0x362baa4d	2.5580114e-06
20	0x36cd34dc	6.1156297e-06
21	0x37db0f68	2.6114009e-05
22	0x384a69d4	4.8259113e-05
23	0x38d5cd2b	0.00010194847
24	0x3666a077	3.4366074e-06
25	0x35d3949c	1.5763976e-06
26	0x2504b8fe	1.1511853e-16
27	0x2f5b4a56	1.9944343e-10
28	0x3836f679	4.3621727e-05
29	0x38cc2b99	9.735599e-05
30	0x395eed67	0.00021260009
31	0x37c8f58d	2.3956201e-05
32	0x34de7f01	4.144313e-07
33	0x36c1440c	5.75977e-06
34	0x382a1b30	4.055648e-05
35	0x36447795	2.9275882e-06
36	0x3706b0c7	8.028182e-06
37	0x362c535c	2.5678519e-06
38	0x372ad04a	1.0181286e-05
39	0x35a1ceeb	1.2055656e-06
40	0x34ce5080	3.8429062e-07
41	0x30a7ee49	1.2218574e-09
42	0x35be454f	1.4176275e-06
43	0x1c78bb01	8.2298014e-22
44	0x2bf49ea0	1.738127e-12
45	0x364dc4f8	3.0662031e-06
46	0x24ece803	1.0274173e-16
47	0x34e4b484	4.2599652e-07
48	0x2f2ac5be	1.5531662e-10
49	0x362baa4b	2.558011e-06
50	0x36cd34dc	6.1156297e-06
51	0x37db0f68	2.6114009e-05
52	0x384a69d4	4.8259113e-05
53	0x38d5cd2b	0.00010194847
54	0x3666a06e	3.4366053e-06
55	0x35d3949c	1.5763976e-06
56	0x2502e878	1.1354466e-16
57	0x2f5b5856	1.9949317e-10
58	0x3836f679	4.3621727e-05
59	0x38cc2b99	9.735599e-05

exp_avg f4 [2]
0	0xb1089e94	-1.9880746e-09
1	0x31118a7f	2.1179003e-09

exp_avg_sq f4 [2]
0	0x3909651c	0.00013103004
1	0x3909651c	0.00013103004
