src/lightning_logs/version_0/checkpoints/epoch=0-step=3166.ckpt (torch, 290659 bytes, 12 tensors)

neural_predicates.digit.net.0.weight f4 [30, 784]
0	0xbcba1c5d	-0.022718603
1	0x3ca2cf0f	0.019874124
2	0xbd4214e7	-0.047383215
3	0xbca267c9	-0.01982488
4	0xbbe70ea6	-0.007051307
5	0xbced9ef2	-0.029006455
6	0x3c70e8ec	0.01470397
7	0xbd160828	-0.036628872
8	0xbd3d6b97	-0.046245184
9	0xbd2abea8	-0.04168573
10	0xbc330fb0	-0.010929033
11	0xbce059a3	-0.027386492
12	0xbd32592a	-0.043542065
13	0xbcb4dbb2	-0.022077415
14	0xbc5abefe	-0.0133512
15	0xbccc5255	-0.024941603
16	0x3c89ebdf	0.016836105
17	0x3b0d6c24	0.002157935
18	0xbc15e5e4	-0.0091490485
19	0xbcd4269e	-0.02589732
20	0xbc51395e	-0.012770025
21	0xbd08bd5b	-0.03338371
22	0x3caec898	0.021335885
23	0x3c835ff0	0.016036958
24	0x3caa2782	0.020770792
25	0x3cb18c8f	0.021673469
26	0xbc8cc94f	-0.017185835
27	0xbaa29414	-0.001240375
28	0xbcd596c5	-0.02607287
29	0x3bca5bb9	0.006175485
30	0xbd0fc7e4	-0.03510274
31	0xb9eaea35	-0.00044806456
32	0xbcf80ec9	-0.030280488
33	0xbc9ec854	-0.019382633
34	0xbbe74526	-0.0070578037
35	0xbd128096	-0.03576716
36	0xb88805c1	-6.486057e-05
37	0x3a98bbcb	0.0011652646
38	0xbc3ce363	-0.011528823
39	0xbc90264b	-0.017596385
40	0xbb8ce2d9	-0.0042995033
41	0xbd2b5828	-0.04183212
42	0xba5d220f	-0.0008435556
43	0xbca8a239	-0.020585166
44	0xbd279fc4	-0.04092385
45	0xbd0bd285	-0.034136314
46	0xbc90a700	-0.017657757
47	0x3c26801e	0.010162381
48	0xbd321edc	-0.04348646
49	0xbd106e0b	-0.035261195
50	0x3ca90624	0.02063281
51	0xbc1f2192	-0.009712594
52	0xbd1f648a	-0.03891424
53	0x3c607a4d	0.013701034
54	0x3ca5f394	0.020257749
55	0xbd05d7ae	-0.03267639
56	0x3cadc0cc	0.021210097
57	0xbd215a65	-0.039392848
58	0x3c5d7013	0.01351549
59	0xbc8dbe3c	-0.017302625
60	0x3ca0a0dc	0.019607954
61	0xbd2ce339	-0.042208884
62	0xbcda3363	-0.026635831
63	0x3b31a4bf	0.0027106253
64	0xbd29dfa7	-0.041473057
65	0x3b0976cb	0.0020975347
66	0x3c0d77c6	0.008634513
67	0xbc9cd84e	-0.01914611
68	0xbc341bd1	-0.01099296
69	0xbc80d9ce	-0.015728857
70	0xbca17b67	-0.019712163
71	0xbd0a6e8c	-0.033796832
72	0x3c61bee1	0.013778419
73	0xbc2fe9ff	-0.010736941
74	0xbcbe5bdd	-0.023237163
75	0xbc07b5df	-0.008283108
76	0xbd1907bc	-0.03736089
77	0x3b368920	0.002785273
78	0x3c824f94	0.015907086
79	0xbc8099fe	-0.01569843
80	0xbccf2ec3	-0.025290852
81	0xbc5b7e17	-0.013396761
82	0x3c8f62e9	0.017503219
83	0xbcfa9569	-0.030588822
84	0xbc4dd0bf	-0.012561976
85	0x3bf39243	0.0074332072
86	0xbbf01b65	-0.0073274844
87	0xbd20a14e	-0.039216332
88	0x3c9c1184	0.01905132
89	0xbd006941	-0.031350378
90	0xbc9e0bea	-0.01929279
91	0x3c85f075	0.01635001
92	0xbc6a37bc	-0.014295515
93	0x3c836c2d	0.016042793
94	0xbc01951f	-0.007909088
95	0x3b95f452	0.0045762444
96	0xbbb6605f	-0.0055656875
97	0xbc3364b8	-0.010949306
98	0x3cae7674	0.021296717
99	0x3c7868bf	0.015161692
100	0xbcda5ea9	-0.026656466
101	0x3be5e87b	0.007016239
102	0xbd05bfa9	-0.032653484
103	0x3ca81f57	0.020522757
104	0xbd32dff2	-0.043670602
105	0xbd0a5f5f	-0.03378236
106	0x3ad05667	0.001589489
107	0xbc771a50	-0.015081957
108	0xbcd40a1c	-0.025883727
109	0xbc437acc	-0.0119311325
110	0xbd15a9bf	-0.036538836
111	0x3c94db4c	0.018170975
112	0x3bc37502	0.005964876
113	0x3c52c005	0.012863164
114	0xbb18d68b	-0.0023321237
115	0xbd0d19bd	-0.034448374
116	0xbd0e1f3d	-0.03469776
117	0x3c7eef3f	0.01555997
118	0xbac3892d	-0.0014918201
119	0xbc0ddfa6	-0.008659279
120	0xbccc8694	-0.024966516
121	0x3c725796	0.01479139
122	0xbc8d78f2	-0.017269585
123	0xbc768207	-0.015045649
124	0xbd3857dc	-0.045005664
125	0xbd395b67	-0.045253184
126	0xbc407f16	-0.01174905
127	0xba54bd06	-0.0008115325
128	0xbd331b63	-0.04372729
129	0xbab121f4	-0.0013514147
130	0x3ca73e8f	0.020415572
131	0x3cd7cef5	0.026343802
132	0x3cc97d38	0.024595842
133	0xbc0bf4e3	-0.008542272
134	0x3caafc0f	0.020872144
135	0x3c9c4739	0.01907693
136	0xbcf09773	-0.029369092
137	0xbd201c63	-0.03908957
138	0xbd0caaa9	-0.03434244
139	0xbb6f9d81	-0.0036562386
140	0xbd024916	-0.03180798
141	0x3c87a984	0.016560324
142	0x3c337b20	0.010954648
143	0x3be2617c	0.0069085937
144	0xbd3f0c3b	-0.046642523
145	0x3ca49252	0.020089302
146	0xbcc3231f	-0.023820458
147	0xbccee5b1	-0.02525601
148	0xbd2978e5	-0.04137506
149	0xbcbf39ba	-0.023342956
150	0xbbf576b2	-0.007490956
151	0xbcdfd096	-0.027321141
152	0x3bea6829	0.00715353
153	0x3bc2cc87	0.0059447917
154	0xbc15aa5c	-0.009134855
155	0x3cb14a5d	0.021641904
156	0xbd0ca595	-0.0343376
157	0x3c114b93	0.008868116
158	0xbc3312b6	-0.010929754
159	0x3beb536a	0.0071815746
160	0x3cd35e70	0.025801867
161	0x3c8e5aa0	0.017377198
162	0x3c90fdab	0.017699083
163	0xbcb5761f	-0.022151051
164	0xbcf18f92	-0.029487405
165	0xbd2be0b7	-0.04196235
166	0x3c75a46e	0.014992816
167	0xbd23639e	-0.039889924
168	0x3c952ab5	0.01820884
169	0xbbef150a	-0.007296209
170	0x3c68ef96	0.014217278
171	0x3aa26948	0.0012390995
172	0xbbd060eb	-0.00635921
173	0xbd3e616b	-0.046479624
174	0x3c7e62f6	0.015526524
175	0xbccdbbb8	-0.025113925
176	0xbc930bcf	-0.017949967
177	0xbd294d05	-0.041333217
178	0xbca5c4d3	-0.020235455
179	0x3cc7d43a	0.02439319
180	0xbc18d60e	-0.009328378
181	0xbcb51b46	-0.022107732
182	0x3ceb2419	0.028703736
183	0x3b87ade8	0.0041406043
184	0x3b323ef2	0.0027198163
185	0xbc95372f	-0.01821479
186	0x3cfa19cb	0.030529877
187	0x3c9408aa	0.018070538
188	0x38e95578	0.000111262256
189	0x3a7a1e22	0.00095412333
190	0x3ca5c946	0.020237576
191	0x3c51a0fc	0.012794729
192	0xbd048a0c	-0.032358214
193	0xbc261697	-0.010137222
194	0xbd364878	-0.044502705
195	0xbd23b5cc	-0.039968297
196	0xbcf940c4	-0.03042639
197	0xbcf886e7	-0.030337764
198	0xbcb9584d	-0.022625113
199	0xbd1d0998	-0.038339227
200	0xbd327447	-0.043567922
201	0xbd1a9716	-0.037741743
202	0xbd1977d4	-0.037467793
203	0x3adf3d73	0.0017031863
204	0x3b8f63f5	0.0043759295
205	0xbce1bb77	-0.02755521
206	0xba9d7969	-0.0012014332
207	0xbce73b7c	-0.028226607
208	0xbb577420	-0.0032875612
209	0x3c6db77b	0.014509077
210	0x3cbbe8a1	0.022938075
211	0x3bc496f2	0.0059994394
212	0x3c10012e	0.008789344
213	0x3c1036b2	0.008802103
214	0x3c7c0328	0.015381612
215	0x3bd66a66	0.0065434454
216	0x3af8c769	0.0018980327
217	0xbcb57fbc	-0.022155635
218	0x3c911686	0.017710935
219	0xbd24a399	-0.04019508
220	0xbb0b2ab3	-0.0021235168
221	0x3b9bebca	0.004758333
222	0xbd02ade6	-0.031904124
223	0xbd127245	-0.035753507
224	0x3bd53508	0.006506566
225	0xbd226236	-0.039644442
226	0x3bf1bf0d	0.0073775114
227	0x3ca51c3f	0.02015507
228	0xbd4139c7	-0.04717424
229	0xbd0197d8	-0.03163895
230	0x3be7f1a9	0.0070783687
231	0xbb702b26	-0.0036646812
232	0xbd1ac32e	-0.037783794
233	0xbc969672	-0.018382285
234	0xbd1d2ab4	-0.038370803
235	0x3cde5181	0.027138473
236	0x3cee19ae	0.02906498
237	0xbb88b1f8	-0.004171606
238	0xbc436f17	-0.011928341
239	0x3cbc67a5	0.02299864
240	0x3d2cf1ba	0.042222716
241	0xbccb0d05	-0.024786482
242	0xbcddc038	-0.027069196
243	0x3d286548	0.041112214
244	0xbc20a03f	-0.009803831
245	0xbcc6e65d	-0.024279768
246	0xbc92d39f	-0.017923174
247	0x3c2252aa	0.009907404
248	0xbd40dbb0	-0.04708451
249	0x3bb273b7	0.005445923
250	0x3ba8d752	0.0051526213
251	0xbd00864d	-0.03137808
252	0x3ca93be2	0.020658437
253	0xbc9be670	-0.01903078
254	0xbc6d4043	-0.014480653
255	0x3a2279bb	0.0006197949

neural_predicates.digit.net.0.bias f4 [30]
0	0xbc57e77c	-0.013177749
1	0x3c248779	0.010042065
2	0xbcdcae04	-0.026938446
3	0x3d004165	0.031312365
4	0x3c872638	0.016497716
5	0x3d2777ca	0.040885724
6	0xbcc7eafa	-0.024404038
7	0xbcc1fd7f	-0.023680447
8	0x3d3d061e	0.046148412
9	0x3cafbe01	0.021452906
10	0xbc39c8a7	-0.011339343
11	0x3d657659	0.05602107
12	0xbd1040ac	-0.035217926
13	0x3cbb8011	0.022888215
14	0x3cce39cd	0.025174046
15	0xbca67171	-0.020317765
16	0xbd2ea355	-0.042636234
17	0xbc3af76f	-0.011411532
18	0xbb98274a	-0.0046433555
19	0x3bf09b0b	0.0073427013
20	0xbbb6586c	-0.00556474
21	0xbaa7385e	-0.0012757888
22	0x3b8fcb38	0.0043882392
23	0x3cea92e7	0.028634502
24	0xbcee4eb5	-0.029090265
25	0x3b711d5b	0.003679118
26	0xbc9a4a7a	-0.018834341
27	0x3d2c6356	0.04208692
28	0x3d22eff8	0.039779633
29	0xbc33d57e	-0.0109761935

neural_predicates.digit.net.2.weight f4 [2, 30]
0	0x3da8c15c	0.082400054
1	0x3db75bd5	0.089530624
2	0xbe1d8897	-0.15384136
3	0x3d9d55c0	0.07682371
4	0x3e1b4de2	0.15166429
5	0x3d6bdbad	0.057582546
6	0xbdc1fad5	-0.094716705
7	0xbd305f25	-0.043059487
8	0x3e04a5dd	0.12953897
9	0xbda9afa6	-0.082854554
10	0x3d990ad4	0.074727684
11	0x3d91bede	0.07116483
12	0xbdeccd5f	-0.11562609
13	0xbe054792	-0.13015583
14	0xbe2722b7	-0.16321836
15	0x38f2476b	0.00011552762
16	0xbd207308	-0.039172202
17	0x3e3a0e29	0.18169464
18	0xbd9c001e	-0.0761721
19	0x3bcad70a	0.0061901854
20	0xbe23df74	-0.1600321
21	0x3d666749	0.056250844
22	0x3e3b67c3	0.183013
23	0x3c9ca598	0.01912193
24	0xbd2f5b54	-0.042811707
25	0x3e34ac2f	0.17643808
26	0xbe0b2ff7	-0.13592516
27	0x3ce39f6c	0.02778598
28	0x3de50425	0.11182431
29	0xbc5e9ce4	-0.01358721
30	0xbe1b1bc0	-0.15147305
31	0x3df2ef9e	0.118621096
32	0xbbb29190	-0.0054494813
33	0x3a7d61e2	0.000966577
34	0xbe6da818	-0.23208654
35	0xbe233468	-0.1593796
36	0x3e1c423d	0.15259643
37	0x3e18867a	0.14895049
38	0x3da0ad3a	0.0784554
39	0x3d666d12	0.05625636
40	0xbcb51efc	-0.022109501
41	0xbe7ec015	-0.24877961
42	0xbdc17b04	-0.094472915
43	0xbd917738	-0.07102817
44	0xbd4cbda8	-0.049985558
45	0x3de011c2	0.10940887
46	0x3d78966b	0.060690325
47	0x3d98ab46	0.07454543
48	0xbde4857d	-0.11158273
49	0xbe03a5f1	-0.1285627
50	0x3db6db95	0.08928601
51	0xbdc57825	-0.096420564
52	0xbc8d5d6d	-0.017256463
53	0x3d61d667	0.05513611
54	0x3d2dcf5c	0.04243408
55	0xbe0bd0da	-0.1365389
56	0xbdf81fac	-0.12115416
57	0xbc18198f	-0.009283437
58	0xbd62dfa2	-0.055389054
59	0x3c7387d8	0.014863931

neural_predicates.digit.net.2.bias f4 [2]
0	0xbd9140e6	-0.070924565
1	0xbc9cbfc4	-0.01913441

exp_avg f4 [30, 784]
0	0x00000004	6e-45
1	0x00000004	6e-45
2	0x00000004	6e-45
3	0x00000004	6e-45
4	0x00000004	6e-45
5	0x00000004	6e-45
6	0x00000004	6e-45
7	0x00000004	6e-45
8	0x00000004	6e-45
9	0x00000004	6e-45
10	0x00000004	6e-45
11	0x00000004	6e-45
12	0x00000004	6e-45
13	0x00000004	6e-45
14	0x00000004	6e-45
15	0x00000004	6e-45
16	0x00000004	6e-45
17	0x00000004	6e-45
18	0x00000004	6e-45
19	0x00000004	6e-45
20	0x00000004	6e-45
21	0x00000004	6e-45
22	0x00000004	6e-45
23	0x00000004	6e-45
24	0x00000004	6e-45
25	0x00000004	6e-45
26	0x00000004	6e-45
27	0x00000004	6e-45
28	0x00000004	6e-45
29	0x00000004	6e-45
30	0x00000004	6e-45
31	0x00000004	6e-45
32	0x00000004	6e-45
33	0x00000004	6e-45
34	0x00000004	6e-45
35	0x00000004	6e-45
36	0x00000004	6e-45
37	0x00000004	6e-45
38	0x00000004	6e-45
39	0x00000004	6e-45
40	0x00000004	6e-45
41	0x00000004	6e-45
42	0x00000004	6e-45
43	0x00000004	6e-45
44	0x00000004	6e-45
45	0x00000004	6e-45
46	0x00000004	6e-45
47	0x00000004	6e-45
48	0x00000004	6e-45
49	0x00000004	6e-45
50	0x00000004	6e-45
51	0x00000004	6e-45
52	0x00000004	6e-45
53	0x00000004	6e-45
54	0x00000004	6e-45
55	0x00000004	6e-45
56	0x00000004	6e-45
57	0x00000004	6e-45
58	0x00000004	6e-45
59	0x00000004	6e-45
60	0x00000004	6e-45
61	0x00000004	6e-45
62	0x00000004	6e-45
63	0x00000004	6e-45
64	0x00000004	6e-45
65	0x00000004	6e-45
66	0x00000004	6e-45
67	0x00000004	6e-45
68	0x00000004	6e-45
69	0x00000004	6e-45
70	0x00000004	6e-45
71	0x00000004	6e-45
72	0x00000004	6e-45
73	0x00000004	6e-45
74	0x00000004	6e-45
75	0x00000004	6e-45
76	0x00000004	6e-45
77	0x00000004	6e-45
78	0x00000004	6e-45
79	0x00000004	6e-45
80	0x00000004	6e-45
81	0x00000004	6e-45
82	0x00000004	6e-45
83	0x00000004	6e-45
84	0x00000004	6e-45
85	0x00000004	6e-45
86	0x00000004	6e-45
87	0x00000004	6e-45
88	0x00000004	6e-45
89	0x00000004	6e-45
90	0x00000004	6e-45
91	0x00000004	6e-45
92	0x00000004	6e-45
93	0x00000004	6e-45
94	0x00000004	6e-45
95	0x00000004	6e-45
96	0x00000004	6e-45
97	0x00000004	6e-45
98	0x00000004	6e-45
99	0x00000004	6e-45
100	0x00000004	6e-45
101	0x00000004	6e-45
102	0x00000004	6e-45
103	0x00000004	6e-45
104	0x00000004	6e-45
105	0x00000004	6e-45
106	0x00000004	6e-45
107	0x00000004	6e-45
108	0x00000004	6e-45
109	0x00000004	6e-45
110	0x00000004	6e-45
111	0x00000004	6e-45
112	0x00000004	6e-45
113	0x00000004	6e-45
114	0x00000004	6e-45
115	0x00000004	6e-45
116	0x00000004	6e-45
117	0x00000004	6e-45
118	0x00000004	6e-45
119	0x00000004	6e-45
120	0x00000004	6e-45
121	0x00000004	6e-45
122	0x00000004	6e-45
123	0x00000004	6e-45
124	0x00000004	6e-45
125	0x00000004	6e-45
126	0x00000004	6e-45
127	0x80000004	-6e-45
128	0x80000004	-6e-45
129	0x00000004	6e-45
130	0x00000004	6e-45
131	0x00000004	6e-45
132	0x00000004	6e-45
133	0x00000004	6e-45
134	0x00000004	6e-45
135	0x00000004	6e-45
136	0x00000004	6e-45
137	0x00000004	6e-45
138	0x00000004	6e-45
139	0x00000004	6e-45
140	0x00000004	6e-45
141	0x00000004	6e-45
142	0x00000004	6e-45
143	0x00000004	6e-45
144	0x00000004	6e-45
145	0x00000004	6e-45
146	0x80000004	-6e-45
147	0x80000004	-6e-45
148	0x80000004	-6e-45
149	0x80000004	-6e-45
150	0x80000004	-6e-45
151	0x80000004	-6e-45
152	0x80000004	-6e-45
153	0x80000004	-6e-45
154	0x80000004	-6e-45
155	0x80000004	-6e-45
156	0x80000004	-6e-45
157	0x80000004	-6e-45
158	0x80000004	-6e-45
159	0x80000004	-6e-45
160	0x80000004	-6e-45
161	0x00000004	6e-45
162	0x00000004	6e-45
163	0x00000004	6e-45
164	0x00000004	6e-45
165	0x00000004	6e-45
166	0x00000004	6e-45
167	0x00000004	6e-45
168	0x00000004	6e-45
169	0x00000004	6e-45
170	0x00000004	6e-45
171	0x00000004	6e-45
172	0x00000004	6e-45
173	0x80000004	-6e-45
174	0x80000004	-6e-45
175	0x80000004	-6e-45
176	0x80000004	-6e-45
177	0x80000004	-6e-45
178	0x80000004	-6e-45
179	0x80000004	-6e-45
180	0x80000004	-6e-45
181	0x80000004	-6e-45
182	0x80000004	-6e-45
183	0x80000004	-6e-45
184	0x80000004	-6e-45
185	0x80000004	-6e-45
186	0x80000004	-6e-45
187	0x80000004	-6e-45
188	0x80000004	-6e-45
189	0x80000004	-6e-45
190	0x00000004	6e-45
191	0x00000004	6e-45
192	0x00000004	6e-45
193	0x00000004	6e-45
194	0x00000004	6e-45
195	0x00000004	6e-45
196	0x00000004	6e-45
197	0x00000004	6e-45
198	0x00000004	6e-45
199	0x00000004	6e-45
200	0x00000004	6e-45
201	0x00000004	6e-45
202	0x80000004	-6e-45
203	0x80000004	-6e-45
204	0x80000004	-6e-45
205	0x80000004	-6e-45
206	0x80000004	-6e-45
207	0x80000004	-6e-45
208	0x80000004	-6e-45
209	0x80000004	-6e-45
210	0x80000004	-6e-45
211	0x80000004	-6e-45
212	0x80000004	-6e-45
213	0x80000004	-6e-45
214	0x80000004	-6e-45
215	0x80000004	-6e-45
216	0x80000004	-6e-45
217	0x80000004	-6e-45
218	0x00000004	6e-45
219	0x00000004	6e-45
220	0x00000004	6e-45
221	0x00000004	6e-45
222	0x00000004	6e-45
223	0x00000004	6e-45
224	0x00000004	6e-45
225	0x00000004	6e-45
226	0x00000004	6e-45
227	0x00000004	6e-45
228	0x00000004	6e-45
229	0x00000004	6e-45
230	0x00000004	6e-45
231	0x00000004	6e-45
232	0x80000004	-6e-45
233	0x80000004	-6e-45
234	0x80000004	-6e-45
235	0x80000004	-6e-45
236	0x80000004	-6e-45
237	0x80000004	-6e-45
238	0x80000004	-6e-45
239	0x80000004	-6e-45
240	0x80000004	-6e-45
241	0x80000004	-6e-45
242	0x80000004	-6e-45
243	0x80000004	-6e-45
244	0x80000004	-6e-45
245	0x80000004	-6e-45
246	0x00000004	6e-45
247	0x00000004	6e-45
248	0x00000004	6e-45
249	0x00000004	6e-45
250	0x00000004	6e-45
251	0x00000004	6e-45
252	0x00000004	6e-45
253	0x00000004	6e-45
254	0x00000004	6e-45
255	0x00000004	6e-45

exp_avg_sq f4 [30, 784]
0	0x328f1343	1.665615e-08
1	0x328f1343	1.665615e-08
2	0x328f1343	1.665615e-08
3	0x328f1343	1.665615e-08
4	0x328f1343	1.665615e-08
5	0x328f1343	1.665615e-08
6	0x328f1343	1.665615e-08
7	0x328f1343	1.665615e-08
8	0x328f1343	1.665615e-08
9	0x328f1343	1.665615e-08
10	0x328f1343	1.665615e-08
11	0x328f1343	1.665615e-08
12	0x328f1343	1.665615e-08
13	0x328f1343	1.665615e-08
14	0x328f1343	1.665615e-08
15	0x328f1343	1.665615e-08
16	0x328f1343	1.665615e-08
17	0x328f1343	1.665615e-08
18	0x328f1343	1.665615e-08
19	0x328f1343	1.665615e-08
20	0x328f1343	1.665615e-08
21	0x328f1343	1.665615e-08
22	0x328f1343	1.665615e-08
23	0x328f1343	1.665615e-08
24	0x328f1343	1.665615e-08
25	0x328f1343	1.665615e-08
26	0x328f1343	1.665615e-08
27	0x328f1343	1.665615e-08
28	0x328f1343	1.665615e-08
29	0x328f1343	1.665615e-08
30	0x328f1343	1.665615e-08
31	0x328f1343	1.665615e-08
32	0x328f1343	1.665615e-08
33	0x328f1343	1.665615e-08
34	0x328f1343	1.665615e-08
35	0x328f1343	1.665615e-08
36	0x328f1343	1.665615e-08
37	0x328f1343	1.665615e-08
38	0x328f1343	1.665615e-08
39	0x328f1343	1.665615e-08
40	0x328f1343	1.665615e-08
41	0x328f1343	1.665615e-08
42	0x328f1343	1.665615e-08
43	0x328f1343	1.665615e-08
44	0x328f1343	1.665615e-08
45	0x328f1343	1.665615e-08
46	0x328f1343	1.665615e-08
47	0x328f1343	1.665615e-08
48	0x328f1343	1.665615e-08
49	0x328f1343	1.665615e-08
50	0x328f1343	1.665615e-08
51	0x328f1343	1.665615e-08
52	0x328f1343	1.665615e-08
53	0x328f1343	1.665615e-08
54	0x328f1343	1.665615e-08
55	0x328f1343	1.665615e-08
56	0x328f1343	1.665615e-08
57	0x328f1343	1.665615e-08
58	0x328f1343	1.665615e-08
59	0x328f1343	1.665615e-08
60	0x328f1343	1.665615e-08
61	0x328f1343	1.665615e-08
62	0x328f1343	1.665615e-08
63	0x328f1343	1.665615e-08
64	0x328f1343	1.665615e-08
65	0x328f1343	1.665615e-08
66	0x328f1343	1.665615e-08
67	0x328f1343	1.665615e-08
68	0x328f1343	1.665615e-08
69	0x328f1343	1.665615e-08
70	0x328f1343	1.665615e-08
71	0x328f1343	1.665615e-08
72	0x328f1343	1.665615e-08
73	0x328f1343	1.665615e-08
74	0x328f1343	1.665615e-08
75	0x328f1343	1.665615e-08
76	0x328f1343	1.665615e-08
77	0x328f1343	1.665615e-08
78	0x328f1343	1.665615e-08
79	0x328f1343	1.665615e-08
80	0x328f1343	1.665615e-08
81	0x328f1343	1.665615e-08
82	0x328f1343	1.665615e-08
83	0x328f1343	1.665615e-08
84	0x328f1343	1.665615e-08
85	0x328f1343	1.665615e-08
86	0x328f1343	1.665615e-08
87	0x328f1343	1.665615e-08
88	0x328f1343	1.665615e-08
89	0x328f1343	1.665615e-08
90	0x328f1343	1.665615e-08
91	0x328f1343	1.665615e-08
92	0x328f1343	1.665615e-08
93	0x328f1343	1.665615e-08
94	0x328f1343	1.665615e-08
95	0x328f1343	1.665615e-08
96	0x328f1340	1.6656145e-08
97	0x328f1343	1.665615e-08
98	0x328f1340	1.6656145e-08
99	0x328f1343	1.665615e-08
100	0x328f1343	1.665615e-08
101	0x328f1343	1.665615e-08
102	0x328f1343	1.665615e-08
103	0x328f1343	1.665615e-08
104	0x328f1343	1.665615e-08
105	0x328f1343	1.665615e-08
106	0x328f1343	1.665615e-08
107	0x328f1343	1.665615e-08
108	0x328f1343	1.665615e-08
109	0x328f1343	1.665615e-08
110	0x328f1343	1.665615e-08
111	0x328f1343	1.665615e-08
112	0x328f1343	1.665615e-08
113	0x328f1343	1.665615e-08
114	0x328f1343	1.665615e-08
115	0x328f1343	1.665615e-08
116	0x328f1343	1.665615e-08
117	0x328f1340	1.6656145e-08
118	0x328f1343	1.665615e-08
119	0x328f1343	1.665615e-08
120	0x328f1343	1.665615e-08
121	0x328f1306	1.6656042e-08
122	0x328f0f4d	1.6654349e-08
123	0x328f0dd6	1.6653683e-08
124	0x328f0fdc	1.6654603e-08
125	0x328f0e28	1.6653829e-08
126	0x3287db2e	1.581574e-08
127	0x3288ecf1	1.5940232e-08
128	0x32494067	1.1714383e-08
129	0x31998c15	4.4688115e-09
130	0x3202d49f	7.61534e-09
131	0x325e29cc	1.2931604e-08
132	0x3276073a	1.4320728e-08
133	0x3252aab5	1.2262423e-08
134	0x328f130b	1.665605e-08
135	0x328f1343	1.665615e-08
136	0x328f1343	1.665615e-08
137	0x328f1343	1.665615e-08
138	0x328f1343	1.665615e-08
139	0x328f1343	1.665615e-08
140	0x328f1343	1.665615e-08
141	0x328f1343	1.665615e-08
142	0x328f1343	1.665615e-08
143	0x328f1343	1.665615e-08
144	0x328f1343	1.665615e-08
145	0x328f1343	1.665615e-08
146	0x328f1343	1.665615e-08
147	0x328f133d	1.665614e-08
148	0x325ebc43	1.29649065e-08
149	0x326cf2df	1.37922305e-08
150	0x326cf6a5	1.37930884e-08
151	0x325fb06b	1.3020421e-08
152	0x323a3cc2	1.084044e-08
153	0x322b4df0	9.971231e-09
154	0x321d75a8	9.165355e-09
155	0x3212859a	8.528696e-09
156	0x322bbb7d	9.99614e-09
157	0x322ad23d	9.943105e-09
158	0x322bd773	1.00024975e-08
159	0x3252fdf6	1.2281353e-08
160	0x32727ac7	1.411417e-08
161	0x321e26de	9.205648e-09
162	0x328da30e	1.6488709e-08
163	0x328f1343	1.665615e-08
164	0x328f1343	1.665615e-08
165	0x328f1343	1.665615e-08
166	0x328f1343	1.665615e-08
167	0x328f1343	1.665615e-08
168	0x328f1343	1.665615e-08
169	0x328f1343	1.665615e-08
170	0x328f1343	1.665615e-08
171	0x328f1343	1.665615e-08
172	0x328f1343	1.665615e-08
173	0x328f1343	1.665615e-08
174	0x328f1325	1.6656097e-08
175	0x32602757	1.3047461e-08
176	0x3264d75d	1.3320315e-08
177	0x325ed156	1.2969698e-08
178	0x3244fbc1	1.1465944e-08
179	0x323a57d3	1.0846594e-08
180	0x32249341	9.579538e-09
181	0x32332abf	1.0428891e-08
182	0x325c26b7	1.2814488e-08
183	0x326dadb6	1.3834713e-08
184	0x31a1ae9f	4.705569e-09
185	0x322830c0	9.7899715e-09
186	0x32419d24	1.1269808e-08
187	0x32387b5a	1.07382565e-08
188	0x325d81c2	1.2893397e-08
189	0x324dc8c4	1.1978219e-08
190	0x32468bc0	1.1556892e-08
191	0x328f0373	1.664896e-08
192	0x328f1343	1.665615e-08
193	0x328f1343	1.665615e-08
194	0x328f1343	1.665615e-08
195	0x328f1343	1.665615e-08
196	0x328f1343	1.665615e-08
197	0x328f1343	1.665615e-08
198	0x328f1343	1.665615e-08
199	0x328f1343	1.665615e-08
200	0x328f1343	1.665615e-08
201	0x328f133d	1.665614e-08
202	0x328f0eb6	1.665408e-08
203	0x324f5218	1.2067652e-08
204	0x32513d66	1.21793615e-08
205	0x32402a2c	1.118546e-08
206	0x323ff350	1.1172986e-08
207	0x32335596	1.0438631e-08
208	0x3230c8ee	1.0290234e-08
209	0x32641ada	1.3277452e-08
210	0x32628923	1.3186113e-08
211	0x320a9331	8.066125e-09
212	0x32253062	9.615265e-09
213	0x3242362f	1.1304606e-08
214	0x3241c5d8	1.1279063e-08
215	0x321d1400	9.14315e-09
216	0x3245b696	1.1508424e-08
217	0x32181fa0	8.854755e-09
218	0x327a5a61	1.4572465e-08
219	0x328ecfc9	1.6625465e-08
220	0x328f1343	1.665615e-08
221	0x328f1343	1.665615e-08
222	0x328f1343	1.665615e-08
223	0x328f1343	1.665615e-08
224	0x328f1343	1.665615e-08
225	0x328f1343	1.665615e-08
226	0x328f1343	1.665615e-08
227	0x328f1343	1.665615e-08
228	0x328f1343	1.665615e-08
229	0x328a1c06	1.6078058e-08
230	0x32508d8b	1.2139377e-08
231	0x32508195	1.2136657e-08
232	0x32407369	1.1202112e-08
233	0x3247338a	1.1595043e-08
234	0x3239896e	1.0799665e-08
235	0x32173903	8.80232e-09
236	0x323f4d03	1.1135174e-08
237	0x32678dff	1.3478256e-08
238	0x3223abb6	9.526891e-09
239	0x3227707e	9.746257e-09
240	0x322305af	9.489141e-09
241	0x32329e22	1.0396919e-08
242	0x324c1e61	1.188127e-08
243	0x326c4c57	1.3754366e-08
244	0x322ae49d	9.947283e-09
245	0x322a68b9	9.9191135e-09
246	0x327a2527	1.4560363e-08
247	0x328ec940	1.6622494e-08
248	0x328f07c3	1.665092e-08
249	0x328f1343	1.665615e-08
250	0x328f1343	1.665615e-08
251	0x328f1343	1.665615e-08
252	0x328f1343	1.665615e-08
253	0x328f1343	1.665615e-08
254	0x328f1343	1.665615e-08
255	0x328f1343	1.665615e-08

exp_avg f4 [30]
0	0x80000004	-6e-45
1	0x00000004	6e-45
2	0x00000004	6e-45
3	0x80000004	-6e-45
4	0x80000004	-6e-45
5	0x80000004	-6e-45
6	0x00000004	6e-45
7	0x00000004	6e-45
8	0x80000004	-6e-45
9	0x00000004	6e-45
10	0x80000004	-6e-45
11	0x80000004	-6e-45
12	0x00000004	6e-45
13	0x00000004	6e-45
14	0x00000004	6e-45
15	0x00000004	6e-45
16	0x00000004	6e-45
17	0x80000004	-6e-45
18	0x80000004	-6e-45
19	0x80000004	-6e-45
20	0x00000004	6e-45
21	0x80000004	-6e-45
22	0x80000004	-6e-45
23	0x00000004	6e-45
24	0x00000004	6e-45
25	0x80000004	-6e-45
26	0x00000004	6e-45
27	0x80000004	-6e-45
28	0x80000004	-6e-45
29	0x00000004	6e-45

exp_avg_sq f4 [30]
0	0x328f1343	1.665615e-08
1	0x331e9a22	3.6927425e-08
2	0x36092bf1	2.0440168e-06
3	0x33b4876f	8.4065384e-08
4	0x2d8b7712	1.5855348e-11
5	0x3658e815	3.2321598e-06
6	0x303e0666	6.913069e-10
7	0x3569269d	8.6855454e-07
8	0x333e1d76	4.4264617e-08
9	0x33b00c86	8.197917e-08
10	0x34e3e90d	4.2451612e-07
11	0x25a71693	2.898518e-16
12	0x33747fe5	5.6926996e-08
13	0x339cabb9	7.295552e-08
14	0x35acb91a	1.286887e-06
15	0x343bed21	1.7501999e-07
16	0x35956e8b	1.1133537e-06
17	0x338825e2	6.339884e-08
18	0x30a1e68c	1.1779817e-09
19	0x34592285	2.0222258e-07
20	0x3200d25e	7.498413e-09
21	0x3271b945	1.4070172e-08
22	0x36335647	2.6723299e-06
23	0x2a0643c7	1.1925106e-13
24	0x3412d31c	1.3674111e-07
25	0x3684bd5d	3.9559513e-06
26	0x1f957712	6.330094e-20
27	0x2f5299a8	1.9153978e-10
28	0x35e32fce	1.6926731e-06
29	0x2c8697e6	3.825373e-12

exp_avg f4 [2, 30]
0	0x80000004	-6e-45
1	0x80000004	-6e-45
2	0x80000004	-6e-45
3	0x80000004	-6e-45
4	0x80000004	-6e-45
5	0x80000004	-6e-45
6	0x80000004	-6e-45
7	0x80000004	-6e-45
8	0x80000004	-6e-45
9	0x80000004	-6e-45
10	0x80000004	-6e-45
11	0x80000004	-6e-45
12	0x80000004	-6e-45
13	0x80000004	-6e-45
14	0x80000004	-6e-45
15	0x80000004	-6e-45
16	0x80000004	-6e-45
17	0x80000004	-6e-45
18	0x80000004	-6e-45
19	0x80000004	-6e-45
20	0x80000004	-6e-45
21	0x80000004	-6e-45
22	0x80000004	-6e-45
23	0x80000004	-6e-45
24	0x80000004	-6e-45
25	0x80000004	-6e-45
26	0x80000004	-6e-45
27	0x80000004	-6e-45
28	0x80000004	-6e-45
29	0x80000004	-6e-45
30	0x00000004	6e-45
31	0x00000004	6e-45
32	0x00000004	6e-45
33	0x00000004	6e-45
34	0x00000004	6e-45
35	0x00000004	6e-45
36	0x00000004	6e-45
37	0x00000004	6e-45
38	0x00000004	6e-45
39	0x00000004	6e-45
40	0x00000004	6e-45
41	0x00000004	6e-45
42	0x00000004	6e-45
43	0x00000004	6e-45
44	0x00000004	6e-45
45	0x00000004	6e-45
46	0x00000004	6e-45
47	0x00000004	6e-45
48	0x00000004	6e-45
49	0x00000004	6e-45
50	0x00000004	6e-45
51	0x00000004	6e-45
52	0x00000004	6e-45
53	0x00000004	6e-45
54	0x00000004	6e-45
55	0x00000004	6e-45
56	0x00000004	6e-45
57	0x00000004	6e-45
58	0x00000004	6e-45
59	0x00000004	6e-45

exp_avg_sq f4 [2, 30]
0	0x33b8a95f	8.598976e-08
1	0x356ddff9	8.8615303e-07
2	0x38403bc2	4.583202e-05
3	0x373f27ee	1.1393784e-05
4	0x2e0b42ff	3.1664445e-11
5	0x38b91341	8.825074e-05
6	0x2d83ff84	1.5006447e-11
7	0x372b828c	1.022279e-05
8	0x3892fb8d	7.0086775e-05
9	0x357e865f	9.481791e-07
10	0x389f46d0	7.594901e-05
11	0x2ad4bd30	3.779004e-13
12	0x378591bb	1.5922697e-05
13	0x3678c024	3.706672e-06
14	0x384a408b	4.8220663e-05
15	0x35978e0c	1.1291718e-06
16	0x3733cafd	1.0716493e-05
17	0x36a93198	5.042366e-06
18	0x37ab9f58	2.0458989e-05
19	0x36eb2937	7.008344e-06
20	0x30fe1b23	1.8488645e-09
21	0x34ba1143	3.465776e-07
22	0x389b2a22	7.398824e-05
23	0x2b13aa92	5.2461605e-13
24	0x33c1d597	9.0261146e-08
25	0x383e4718	4.536574e-05
26	0x1fce4f8f	8.737601e-20
27	0x3658f439	3.2328664e-06
28	0x37cc20fe	2.4334058e-05
29	0x2ae3cfda	4.0467526e-13
30	0x33b8a96f	8.5989875e-08
31	0x356ddff9	8.8615303e-07
32	0x38403bc2	4.583202e-05
33	0x373f27fe	1.1393799e-05
34	0x2e0b5d12	3.1687604e-11
35	0x38b91346	8.8250774e-05
36	0x2d83ff54	1.5006364e-11
37	0x372b828d	1.02227905e-05
38	0x3892fb8f	7.008679e-05
39	0x357e8657	9.4817864e-07
40	0x389f46d0	7.594901e-05
41	0x2acd4237	3.646126e-13
42	0x378591bb	1.5922697e-05
43	0x3678c026	3.7066725e-06
44	0x384a408b	4.8220663e-05
45	0x35978e0c	1.1291718e-06
46	0x3733cb00	1.0716496e-05
47	0x36a9319d	5.0423682e-06
48	0x37ab9f5b	2.0458994e-05
49	0x36eb2942	7.008349e-06
50	0x30fe1b2b	1.8488654e-09
51	0x34ba114d	3.4657788e-07
52	0x389b2a22	7.398824e-05
53	0x2b13abea	5.246347e-13
54	0x33c1d597	9.0261146e-08
55	0x383e471c	4.5365756e-05
56	0x1fbd94fc	8.029109e-20
57	0x3658f448	3.2328699e-06
58	0x37cc20fe	2.4334058e-05
59	0x2ae3d032	4.0467765e-13

exp_avg f4 [2]
0	0x80000004	-6e-45
1	0x00000004	6e-45

exp_avg_sq f4 [2]
0	0x38b153f1	8.455653e-05
1	0x38b153f1	8.455653e-05
